src/mnist/DecoyMNIST/orig_model_decoyMNIST.pt (torch, 935311 bytes, 8 tensors)

conv1.weight f4 [20, 1, 5, 5]
00000000: 4489 0d3e 911e 47be 333b 90be 70b4 8c3c
00000010: 1b5a cfbd f8b3 10be bad2 6c3d e62c 5dbe
00000020: ffe8 623e f651 603d ab59 963d 7f5e 753d
00000030: ce90 c13e bbd0 883e 7051 863e dcb2 5e3e
00000040: 46bc f03d 8f9e 2b3e f332 93be 9449 0dbe
00000050: e262 d2bd 3069 9bbe 120c 25be 6db2 28bd
00000060: 5ce1 3dbe 0660 23be a13c 823c ab07 a23e
00000070: 8a76 6b3e bce7 9ebb 7d35 c43d c82b 503e
00000080: 2147 273d b374 90bd 8d98 6abe c568 973e
00000090: 3cf5 833c f5ec 04be 745a 83be 9457 db3d
000000a0: fa9e 3b3d afe9 5dbe 1239 0bbe 5930 e0bd
000000b0: c313 a83d 54ad 5e3d 2cfa 9b3c cb69 733d
000000c0: fd4a d5bd da28 043e 1805 1c3e df63 d93c
000000d0: e9f8 a93d cba2 283c f517 2dbe 7b12 993b
000000e0: 2224 0a3e ca4a 0f3d ab1a fcbc 1c8c c0be
000000f0: f17b d2bc 710b e8bb 40dd bb3e cd0e 983e
00000100: b6fa 6abe 6b4f f2bd 4b04 44be 459d 7a3e
00000110: 8a76 673e cc03 213b c451 c83d c827 88be
00000120: b80d 69b9 a02b 893e 9172 ce3c dde7 d03d
00000130: e99e 853e 8c08 3d3e 1602 17be 29e8 b2bd
00000140: 018e 463d 74dc 373e 842e 143d 7fb1 2ebe
00000150: 4f63 ccbd 7143 d53d 8757 9d3d 1754 95bd
00000160: bd4e 5bbe a024 3b3d 0a04 823e 4819 353e
00000170: 0360 70be 57e2 14bd e5ed 4ebe 202d 123e
00000180: e9d3 3c3e 0570 40be edfd 03be f5c7 37bd
00000190: 6c61 93bb b999 603e ffdd 113e 786a 293d
000001a0: 004c 8fbe 391f efbd 51f3 12be 6324 a33e
000001b0: c1f3 243d 0b01 92be 1d56 433b 91b4 fabd
000001c0: faa4 74bd e2d2 463e 0db6 523e 84e1 61be
000001d0: 69ca 913d 89bd 8ebd 4629 493e 5f6a 30bc
000001e0: 00b5 63bd 4958 303e 73cb 21be e1a2 063e
000001f0: bb2f 18bd 730f 1a3d a6e6 80be 4c20 d2bd
00000200: 4c66 da3c 95c2 693e af3e a2bd fb27 89be
00000210: f699 f83d 9160 da3e 2612 a3bd 3b70 803d
00000220: 7978 2fbe 601a cb3e e471 853e 6ba3 b8be
00000230: 2191 88bd 3771 ccbd 1fd7 b33e b8da 32be
00000240: c5c5 79bd 3ffc 133e 2d5f 773d e02f 853d
00000250: 6b03 4d3d d2c4 56be f2d8 5b3e d9dc 723e
00000260: 7787 033d 25b2 24be ca91 79be 1860 e3bb
00000270: 5741 a93d 8ce6 1f3d 29af 3ebe 9c2a 3ebe
00000280: 2563 4dbd 00dd ad3e f612 2b3e 335c c33c
00000290: d117 cfbc fdab 0cbe 855d c73d 8d8f a13e
000002a0: 22f0 4a3e bdd5 08be e3c8 1c3d f5ec 93bd
000002b0: b9f1 8b3e ca1c 773e 1ddf 33be bd3d c5bc
000002c0: e35e 233e 0281 9a3e 5dae 71be 6f09 b3bd
000002d0: beff f8bd 4bb7 2c3e 4424 a63e 1145 22be
000002e0: 8c12 24be 384d 0abd b718 493e 5725 963e
000002f0: dd0b 39be e2bf 83be 0848 7e3c dfee 013e
00000300: 30f5 fa3c f764 15be 5478 3dbd 00ef 473e
00000310: c2df 513e 8605 8a3d 0b0d d43d b41d 81bc
00000320: ebd8 d2bc ef3f 333d 1983 c2bd af6f b6bd
00000330: 3952 0abe 45ba 0cbe 7054 61be 723e bf3c
00000340: 271e acbc dcbb 0fbe 76f3 703d 7368 463d
00000350: 4bd3 30be 4a46 3fbe 1049 1cbe fe29 bfbd
00000360: 5f53 833d a369 dcbd ea5d aabd 81f8 8cbd
00000370: 2428 2db9 da89 36bd 5f3e c73c 2eec e53d
00000380: 4319 673d 8f00 a33c 3605 d63d c9fd 533e
00000390: 1afa aabd d10b d93c 176b 523e 027a 173c
000003a0: e57a 343d f3a9 e23c e6b9 9a3e 5ce2 0d3e
000003b0: e7a1 583d 3c43 1a3e 18a1 983e d51c 823e
000003c0: ed35 1bbe f241 b93c a320 5cbe c6e2 07be
000003d0: 87b8 44be f7f8 04be 3829 83bd c8ab 53be
000003e0: 54e8 4ebe 0ca8 4dbe c869 9bbd 826f 253d
000003f0: 2810 75be cc6b 64be 7133 06be 0a83 a9bd
0.13821894 -0.19445254 -0.28170165 0.017175883 -0.10124608 -0.14131153 0.057818152 -0.21599159
0.22159193 0.054765664 0.073413216 0.05990457 0.3780579 0.2672175 0.26234007 0.21747917
0.1175466 0.16759704 -0.2874981 -0.13797599 -0.10272767 -0.3035369 -0.16117886 -0.041185785
-0.18542999 -0.15954599 0.01589805 0.31646475 0.22994438 -0.0048494022 0.095805146 0.20329201
0.04083932 -0.070535086 -0.22909756 0.2957212 0.016108148 -0.12981017 -0.25654948 0.107100636
0.04580591 -0.21671174 -0.1359599 -0.109467216 0.08206894 0.054364517 0.01904019 0.059427064
-0.104146935 0.12906209 0.15236318 0.02653688 0.08299429 0.010292719 -0.1690367 0.0046713925
0.13490346 0.034983434 -0.030774435 -0.37606895 -0.025693865 -0.007081442 0.36692238 0.29698792
-0.22947201 -0.11831554 -0.19142263 0.24474056 0.22603813 0.0024568914 0.097812206 -0.2659285
-0.00022225722 0.26791096 0.025201114 0.102004744 0.260978 0.18460292 -0.1474689 -0.08735687
0.04847527 0.1795519 0.036177173 -0.17059897 -0.09979879 0.10413254 0.0768271 -0.072914295
-0.21416755 0.045689225 0.25393707 0.17685425 -0.23474126 -0.036348667 -0.20207937 0.14275026
0.18440212 -0.18792732 -0.12889834 -0.04486843 -0.0044976976 0.2193364 0.14244841 0.041361302
-0.2798767 -0.11675877 -0.1435063 0.31863698 0.040271524 -0.2851642 0.0029805966 -0.122414716
-0.059727646 0.19416383 0.2057726 -0.22058684 0.07118685 -0.06969745 0.19644651 -0.010767548
-0.055592537 0.17221178 -0.15800266 0.13148071 -0.037154894 0.03761239 -0.2517597 -0.102600664
0.026660107 0.22828133 -0.07922112 -0.26788315 0.12138741 0.426518 -0.07962446 0.06271406
-0.171358 0.3966856 0.26063454 -0.36062178 -0.06668306 -0.099825315 0.35125062 -0.17466247
-0.060979623 0.14451693 0.0603935 0.06503272 0.050052088 -0.20973518 0.21469477 0.23717059
0.03211161 -0.16083582 -0.2437202 -0.0069389455 0.08264416 0.039038226 -0.18621506 -0.18570942
-0.05014338 0.33957672 0.16706452 0.023847675 -0.025279911 -0.13737483 0.09734634 0.31554833
0.19818166 -0.13362785 0.038277518 -0.0722293 0.27332857 0.24132076 -0.1756558 -0.02407729
0.15954165 0.3017655 -0.2360167 -0.08742034 -0.12158154 0.16866796 0.32449543 -0.15846659
-0.160227 -0.033765048 0.19638334 0.29325363 -0.18070932 -0.25732332 0.015520103 0.12688778
0.030634493 -0.14589296 -0.046257332 0.19524765 0.20495513 0.06739335 0.1035405 -0.015761234
-0.0257382 0.043762144 -0.09497661 -0.08908021 -0.13507928 -0.13742931 -0.22004867 0.023345206
-0.021010472 -0.14036506 0.058825932 0.048439454 -0.17268102 -0.18679157 -0.15262246 -0.09334181
0.06412386 -0.10762336 -0.08318694 -0.06883336 -0.00016513519 -0.04456506 0.024321733 0.11226688
0.056420576 0.019897727 0.10450213 0.2070228 -0.08348484 0.026494892 0.20548664 0.0092453975
0.044062514 0.027668929 0.30219954 0.1385588 0.052888777 0.1506471 0.29810405 0.25412622
-0.1515729 0.022614453 -0.21496825 -0.13270101 -0.19211017 -0.12985598 -0.06404346 -0.20670998
-0.20205814 -0.20083636 -0.075885355 0.040389545 -0.23931944 -0.22306746 -0.13105561 -0.08276947

conv1.bias f4 [20]
00000000: ff1b 28be a291 f73c 1759 10bd d036 07be
00000010: f3a0 1dbe 077a 1cbe f908 aabd 15b2 01be
00000020: aa39 a9bd a200 c03d cc53 d83d 02c4 c0bc
00000030: c55d 033c c67d 93bd 5fff 623d 40dc bd3d
00000040: fe68 4dbe 0aff 563c ba25 0dbe 0c3b e6bd
-0.1641693 0.03022081 -0.035241213 -0.13204503 -0.15393429 -0.15280925 -0.08302493 -0.12665589
-0.08262952 0.09375121 0.10562858 -0.023530964 0.008017962 -0.07201724 0.055419322 0.09270525
-0.20059583 0.0131223295 -0.13783923 -0.11241731

conv2.weight f4 [50, 20, 5, 5]
00000000: 499f 7c3d 096c 44bd 0e1d e3bc 94d0 84bd
00000010: e856 74bd a8ab 1d3e e10e f63c 3928 bdbc
00000020: d23c c9bd a2f4 7abd 91e0 ef3d b8b2 113d
00000030: 1f26 c8bd 568a c1bd 80bd 9abd 9e69 89bd
00000040: 4d26 f43c e449 953b fd82 523d 6539 a23b
00000050: f148 763c 4f06 8e3d 9956 88bd bff2 af3c
00000060: c234 9c3d 0eab 1dbd 7d72 d9bd cd8c 08be
00000070: 07cf 003d 4857 b13d 2361 2f3c 387e 83bd
00000080: d55f 50bd c2f4 a13d 83ce a43d ac28 e83d
00000090: f43b f33c e2f5 17bd 6e02 b03c 3140 b23c
000000a0: d166 b73d 3f52 4cbd 1910 dfbd ff44 b0bc
000000b0: a544 3f3d 2013 8dbd 0d3d 07bd e804 533c
000000c0: c4db 673a 54cc a83b 92a5 2cbd 7162 e93d
000000d0: 63b0 f0bc e54f d4ba fbd5 d93c c5fa cabd
000000e0: 5651 0e3d 8019 e9bc 3268 3e3d 8769 853d
000000f0: ff36 f1bd d7a8 94bc ec18 af3d 3fb5 3c3d
00000100: ffa6 903d dcb9 e53c 628d d0bc 718c a23d
00000110: b555 a03d 0c08 1c3d 0236 0bbd 4161 55bc
00000120: 1f3d 1e3d 6759 513d 7a73 4c3d 28c5 6bbd
00000130: c654 2dbd 618c 80bc fa13 0b3d a20c 303d
00000140: ea81 80bd 8448 b7bd b4a9 2dbd 12d9 8b3d
00000150: bb63 023d d013 64ba 935c 1c3c c8a0 a9bc
00000160: e026 e53c 8cba 893d f763 0cbb 4a52 193c
00000170: d14c 6dbd 1f7c fbbc c9d1 2ebd 2b31 58bd
00000180: 510f 4fbd 3097 8abd 54c2 4fbd 1a69 a7bd
00000190: 9729 dd3c 52bf de3d 99d3 423d 8f8f 623c
000001a0: a3db 8c3c c01b 51bb 57fb 0c3d e4f1 173d
000001b0: bffa 473d ecca 2f3d 3efb 91bd 9fd1 903c
000001c0: 6e5a 713d a8f0 f8bc 6931 843d 56e1 513d
000001d0: f781 973d b046 633d 853d b938 c638 013d
000001e0: 4e73 bb3c c2fa 9e3c 8801 be3d 1f63 8f3d
000001f0: c1bb 623d db86 f1bd bc1d 65bd e607 47bc
00000200: 7333 7f3d 3eb9 8b3d 3855 d43a ed32 b1bb
00000210: 7189 123d 8edc a13d adcf e83d a7c3 ad3d
00000220: 44ce 893b f5d9 4bbc 4ec4 e53d 9944 083e
00000230: 73ed 193d 4bd7 6a3d 2309 83bd bd48 9c3c
00000240: 524d b53d 1253 5e3d 5d6e bdbc 2e8f 37be
00000250: 1d88 febd a2f2 9a3c e106 6fbc 4197 3c3d
00000260: 3206 a33d 8ae3 b4bb eec4 16bd 6d40 97bd
00000270: 5156 ef3b a46b 283d a43c 083d 1e78 c83c
00000280: 5dce dabd 43eb bfbc 6428 963d 52b9 aa3d
00000290: bcde 80bc 79f5 6dbc b186 293d 8009 863d
000002a0: 5990 3c3d c552 093d 3147 b1bb 8e62 38bd
000002b0: 7ba0 943d dcae 123d 3ab3 233c 7029 bcbd
000002c0: 303f 493c 78b3 e53a 712c 3d3d af70 983d
000002d0: 1804 c9bd a678 7dbd f2b0 813d 6c0a 433d
000002e0: 9a14 b23d 751e 21bd ae7b 75bc 475e 573d
000002f0: 667a 51bc 0e5e b63d f621 d1bb 7028 46bd
00000300: 9a69 963d fae9 07bc 1e49 b43b b0e8 78bd
00000310: 9df6 e2bd 6c7d afbb 6afb 47bd 1205 a3bd
00000320: 6170 df3a 6f6f cc3b 5f3f 87bd e695 893c
00000330: de70 723d e74c fa3c 5353 efbc cda0 15bc
00000340: e372 2fbd 7f74 b6bc d659 06bd 42ce bfbd
00000350: e6c4 31bd 7e57 7fbd ffcc 51bd 59ad 1ebd
00000360: e5bc 0fbd 75b8 4bbd cfcd afbd 460f 07bd
00000370: a757 ccbc 4f8c 08bc a3c9 30bd 52d7 9ebd
00000380: ab75 71bd ca23 7a3d 95d4 f0bd 4b4a c3bd
00000390: 4ecb b6bd be74 a5bd 729a f9bc 305e 12be
000003a0: df3e 01be c55e c7bd d700 9dbd 640b ffbc
000003b0: 59e2 c3bd 263d d2bd 47f5 80bd 2c69 84bd
000003c0: bd72 02bd 5720 3abd 7292 5c3d 2a3f 793d
000003d0: 3057 763d bb9d 23bd 6871 4ebc 578a 353d
000003e0: c2a4 2a3d 747a e83d 14c3 223d b897 443d
000003f0: 9c5f 013d 4b05 3bbc a6ab c339 afa3 983d
0.061675344 -0.047954593 -0.027723815 -0.064850956 -0.059653193 0.15397513 0.030036392 -0.023090469
-0.09826054 -0.061268456 0.117127545 0.03557083 -0.09772896 -0.094502136 -0.075556755 -0.06709598
0.02980342 0.0045559276 0.05139445 0.0049506896 0.015032039 0.06934797 -0.06657142 0.021478055
0.0762725 -0.03849321 -0.1061754 -0.13334961 0.031447437 0.08659226 0.010704312 -0.06420559
-0.050872643 0.07908012 0.080472015 0.113358825 0.029691674 -0.037099726 0.021485534 0.021759124
0.089551575 -0.049883123 -0.10891742 -0.021517275 0.046696324 -0.068884134 -0.033017207 0.012879588
0.00088446983 0.005151311 -0.042150088 0.11395729 -0.029380983 -0.0016198127 0.026591292 -0.09911112
0.034745537 -0.028454542 0.046486087 0.06514268 -0.11778068 -0.018146915 0.08549675 0.046071287
0.07063102 0.028042726 -0.025458042 0.07936943 0.07828847 0.03809361 -0.033987053 -0.013023675
0.03863251 0.05111065 0.049914815 -0.05756107 -0.042317174 -0.015691938 0.033954598 0.042980798
-0.06274779 -0.08949378 -0.04239817 0.06828512 0.03183339 -0.0008700462 0.009543556 -0.02070655
0.027972639 0.06725034 -0.0021421888 0.009357998 -0.057934586 -0.030698834 -0.042680535 -0.052781265
-0.050551716 -0.06767118 -0.050722435 -0.081743434 0.02699737 0.10876335 0.047565077 0.013828172
0.017194575 -0.003190741 0.034419384 0.03709592 0.048823114 0.04291813 -0.07127999 0.01767808
0.05892413 -0.030388191 0.06454737 0.051240288 0.07397836 0.055487335 8.832946e-05 0.031548284
0.02288213 0.01940668 0.09277636 0.07001328 0.055354837 -0.117933 -0.05593656 -0.012147879
0.062304925 0.068224415 0.0016199714 -0.005407682 0.035775606 0.079033956 0.11367736 0.08484583
0.004205497 -0.012442102 0.11219083 0.13307418 0.037579965 0.057334226 -0.06398227 0.019077653
0.08852638 0.05427844 -0.023123914 -0.17925712 -0.12428305 0.018914524 -0.014589042 0.046042684
0.07960166 -0.005520289 -0.0368089 -0.07385335 0.007303991 0.04111828 0.033260956 0.024471339
-0.10683892 -0.023427611 0.07331923 0.08336128 -0.015731208 -0.014523857 0.041388217 0.06544781
0.0460361 0.0335262 -0.005410098 -0.045015864 0.07257172 0.03581129 0.009991461 -0.09187591
0.0122831315 0.0017524799 0.04618496 0.07443368 -0.09815234 -0.061882637 0.06332578 0.04761736
0.08695336 -0.039335687 -0.014983101 0.052580144 -0.01278553 0.08904658 -0.0063822223 -0.048378408
0.07344361 -0.00829553 0.0055018803 -0.060768783 -0.11082194 -0.0053555276 -0.04882375 -0.079599515
0.0017047041 0.00623887 -0.06603884 0.01679511 0.05918967 0.030554248 -0.029214537 -0.009132576
-0.042834174 -0.022272347 -0.032800518 -0.093655124 -0.043400668 -0.0623393 -0.05122089 -0.038739536
-0.035092253 -0.04973646 -0.08584177 -0.03297355 -0.02494414 -0.008334233 -0.043161046 -0.07755913
-0.058950108 0.061069287 -0.11759297 -0.09535655 -0.08925496 -0.080789074 -0.030469153 -0.14293742
-0.1262164 -0.09734873 -0.07666176 -0.031133361 -0.09564657 -0.102655694 -0.06296783 -0.064653724
-0.031847704 -0.045440998 0.0538506 0.060851254 0.060141742 -0.039945345 -0.01260028 0.044321384
0.04166103 0.11351481 0.039736822 0.047996253 0.03158532 -0.011414836 0.00037321186 0.07453095

conv2.bias f4 [50]
00000000: 2190 183c 6191 5fbd e67a a2bd 5ef9 d2bc
00000010: eaa4 0e3d 781b 4a3a 12bd d93c 0892 14bd
00000020: 2d1f f6bc 3957 be3c e250 b4bc 4be1 03bd
00000030: 17c4 4ebc 071b 18bc b686 e1bc c1be 31bd
00000040: 781b 903b 4d19 55bc 69a6 9cbd a675 36bc
00000050: 50bd 3fbd 299f c0bc 3dbe 89bb 5219 93bb
00000060: 21ef a43b df21 f13b 68ff 0dbd c252 0dbd
00000070: fb4d 68bc f338 d43c e15f 1bbd 7f59 19b8
00000080: 74d0 09bd 4105 cfbc b308 34bc a7b3 f8bb
00000090: 6bfe 0dbd eed8 87bc bf29 5abd 94b0 5cbd
000000a0: 4ece 24bd 076b ebbb 5c02 23bc 2b09 493b
000000b0: 39f6 64bd 283f 69bd deff 873d 2531 e4bc
000000c0: 3126 09bd fdee 6ebc
0.009311707 -0.054582004 -0.07933597 -0.025753673 0.034825243 0.00077097816 0.026579414 -0.03627208
-0.030044163 0.02323495 -0.022011224 -0.032197278 -0.012619994 -0.009283788 -0.027530055 -0.043394808
0.004397806 -0.01300652 -0.07648928 -0.011136448 -0.0468114 -0.023513393 -0.0042035864 -0.0044891024
0.005033389 0.007358774 -0.034667403 -0.034502752 -0.014178748 0.025906062 -0.037933234 -3.6561392e-05
-0.033646062 -0.02527106 -0.010988402 -0.0075897756 -0.03466646 -0.016582932 -0.05326247 -0.053879336
-0.04023581 -0.0071843895 -0.009949293 0.003067563 -0.05589888 -0.056944996 0.066406 -0.027855465
-0.033483688 -0.014583346

fc1.weight f4 [256, 800]
00000000: 505c 913c 93fc 0fbd f1d1 bcbc e1d2 993c
00000010: 696c 963c f5d1 bbbc 095f 6fbc 1fc6 97bc
00000020: 5ea9 4dbd d66b 833c 1090 f63c 18cb 593d
00000030: 8fcc 8ebd 9c81 7cbd c758 1dbc 6d10 bb3d
00000040: 8125 253c 342c 19bc cf8e 66bd a053 0ebc
00000050: c101 763c a9e1 3fbc 7fd8 abbc e087 193b
00000060: 50ca d93c 7231 0f3d 1178 a23c 7675 123c
00000070: 14d0 2cbb 0bd4 093c 7516 773c 6c12 21bd
00000080: 0dff 193c b7a7 143d d8a8 3abd ade2 05bd
00000090: af39 913c 325c 4f3d 62ea de3c 8cc8 81bc
000000a0: cab9 243c f468 7e3d 2be1 593d 6b47 b23d
000000b0: b3a9 71bb fa9b afbc 2d47 a03b f09f 993d
000000c0: 1be9 d8bb 8044 4fbd abb3 b2bc beba 72bb
000000d0: 9796 93bd 20c9 47bc 99b1 c73c 7c58 d93c
000000e0: b41b 15bd dcd4 9f3c b4f1 033e 9cb7 173d
000000f0: b88d bb3b 8f1c f7bc 61cb 873d d155 46bd
00000100: 8574 9b3b 3c63 9abc 495f 87bc 6d3b 9bbc
00000110: 3c0c 2ebc 35b6 aebb b128 b43d 8646 8d3d
00000120: ef47 c3bb cea5 85bd 0eee a43c 081b 5e3a
00000130: e548 d6bc 2bd5 babb 387c 96bc 0acd 0d3d
00000140: 06cc 57bc efa1 0c3d 2cca c93c 4d28 2ebd
00000150: ed0a fa3b 5c6c a63d 8a9f 5d3d 3326 853c
00000160: c6bb 0f3c 105f 483d 7367 033d d0f1 9cbc
00000170: 1293 92bd 66bf 9fba 3b8f 4b3c 7ec0 d23c
00000180: 8fa4 f1bc 84c5 50bb eb90 c33c 135d df3c
00000190: 3e1f 4f3c 9e7c 983d 2940 943d 7543 f93c
000001a0: 22ea 433d ec4b 8f3d 7eb8 15bd 5c93 aa3b
000001b0: 56f8 293d 41d8 d33b eccc 04bd caaf 413c
000001c0: 0add ab3c fd1c 693d 831b d53c b774 7b3d
000001d0: b253 803d 3a04 be3d bbcb 483c ce6a 883d
000001e0: 9b7d 9f3d 1922 e33c 517b 56bd b892 cb3c
000001f0: a8e3 71b7 9d8e f73a 306b 54bd 9385 99bd
00000200: de04 ab3c 048c 4a3d c367 853d b7e9 b33b
00000210: 4a17 713d 083b c03d fff9 cd3c f9ee f23c
00000220: 10d6 be3c fa9a c33c b185 343d 35de 493d
00000230: 9be2 d4bb 491e 8c3c 35fa 94bc 42f8 a63c
00000240: a63c 313d a124 0b3d 7167 ee3c ab65 fb3c
00000250: 1205 893d 90a3 0f3c 856b 773d daca 2c3d
00000260: 1852 36bd 40be b3bd cb7e b33c cc53 673c
00000270: 3815 bfbc b950 32bd 2deb 323d b787 2c3d
00000280: 3df3 1fbc fc70 2eba f6f2 3a3d 519d 46bc
00000290: 2973 353d 838f 123d 62d6 bebc eb6f 0bbd
000002a0: 5d62 ff3c a8e1 ac3c 3032 8cbc 8ba7 4cbd
000002b0: 8c6e 0c3c fa1b 163c 2789 aa39 526e e63c
000002c0: 2575 683d 5d8b babc fc24 da3b daba 4cbd
000002d0: 1aa5 ab3d ade9 5cbc 1e15 643b 7d07 12bd
000002e0: ddff 553b 8c6d bfbc 4cc5 eabc b35d 09bd
000002f0: dfa2 8d3a 7966 cebd b1fb 3cbc 1ac6 a53d
00000300: f581 3e3d edf3 eabc 5e31 013d 8f73 263d
00000310: 4edc ecbb 9702 133d 5ef8 643d 7ced 163d
00000320: 3c1a 28bd a776 21bd 67c2 ac3d 9835 6a3b
00000330: bce3 cabd 8e6d aabd 291c a53d 52b2 f03d
00000340: c628 a8bc a29b 2a3d 47ce 4abd 80be a4bd
00000350: 85a8 9dbb dfa6 72bc 33c9 41bc ce21 85bd
00000360: eb64 e43c f35f 1f3c dce8 913c c53d f9bc
00000370: dbf5 393d 9ded 453d 7de5 0cbb 96c6 3b3c
00000380: d18e 573a 2029 133b 8771 ee3b 87c3 1b3c
00000390: 0b00 0d3c 07cf c03b ae3d 303c 828a 613c
000003a0: 8eef 793c 81b8 e73b d292 ef3b d0a7 673c
000003b0: e760 c93b 1042 a43b 3a1e 3d3c 3642 593c
000003c0: 83b1 703c bed7 bd3c 23be e23c 9364 c4bb
000003d0: 7851 c13c f618 873d 598f cabc 9f0f 46bc
000003e0: c209 c23d 3637 1e3d 0dca 16bd 5026 803d
000003f0: 6f14 833d c1f9 643d 679e 3a3d eed4 cebc
0.017744213 -0.035152983 -0.023049327 0.018777313 0.01836224 -0.022927264 -0.0146100605 -0.018527089
-0.05021035 0.016042631 0.030097991 0.0531722 -0.0697261 -0.061647043 -0.009603686 0.09133992
0.010079742 -0.009348918 -0.056288537 -0.00868693 0.015015067 -0.011711516 -0.020977257 0.0023426935
0.026585728 0.034959264 0.019832643 0.008939138 -0.0026369141 0.008412371 0.015081038 -0.03932421
0.009399188 0.036292758 -0.04557118 -0.032686878 0.017727701 0.050625034 0.027211372 -0.015842699
0.010054061 0.06211181 0.053193253 0.08705028 -0.003687483 -0.02143668 0.0048912973 0.07501209
-0.006619585 -0.050602436 -0.021814188 -0.0037037577 -0.07206457 -0.012193948 0.024376677 0.02653145
-0.036403373 0.019510679 0.12885171 0.037040338 0.0057236813 -0.030164985 0.06630588 -0.048421685
0.004744115 -0.018846147 -0.016524928 -0.018949235 -0.010623034 -0.0053317794 0.08796824 0.06898217
-0.005959503 -0.06525765 0.020133045 0.0008472656 -0.026157806 -0.005701681 -0.018369779 0.03461937
-0.013171202 0.03433412 0.024632536 -0.042518903 0.007630697 0.08126137 0.054107226 0.016253566
0.008772796 0.048918784 0.03208108 -0.019158274 -0.07156958 -0.0012187778 0.0124242855 0.025726553
-0.029497413 -0.003185601 0.023872813 0.027266061 0.012641726 0.07445644 0.072388 0.030427674
0.04783071 0.06996903 -0.0365529 0.005205555 0.041496597 0.0064649885 -0.03242199 0.011821697
0.020979423 0.05691241 0.026014095 0.061390605 0.062659636 0.0927815 0.012255604 0.066609964
0.07787629 0.02772622 -0.052363697 0.024850234 -1.4417725e-05 0.0018887107 -0.051860034 -0.074961804
0.020876344 0.049449936 0.065139316 0.0054905075 0.0588601 0.09386259 0.025143621 0.029654967
0.023295432 0.02387761 0.04407281 0.04928418 -0.00649674 0.017104285 -0.018185714 0.02038205
0.04327073 0.03397048 0.02910206 0.030688128 0.0669042 0.008767024 0.060405273 0.04218564
-0.044511884 -0.08776522 0.021911046 0.0141191 -0.023325548 -0.043534014 0.043681312 0.042121615
-0.009762582 -0.0006654409 0.04564186 -0.012122468 0.04429928 0.035781395 -0.023295585 -0.03404228
0.031174833 0.021103695 -0.017113775 -0.04996447 0.008571278 0.009161944 0.00032527113 0.028128777
0.056752343 -0.022771532 0.006657241 -0.049982883 0.083811 -0.013483447 0.0034802626 -0.035651673
0.0032653727 -0.023367666 -0.028658532 -0.033536624 0.0010805986 -0.10078139 -0.011534617 0.080944255
0.046510655 -0.028680766 0.03154122 0.04063755 -0.007228411 0.03589114 0.055900924 0.036847576
-0.041040644 -0.039419796 0.08435517 0.003573751 -0.09906718 -0.08321677 0.08062012 0.11752762
-0.020527255 0.04165233 -0.049513128 -0.080441475 -0.004811349 -0.014810293 -0.011827755 -0.06500588
0.027880153 0.009727466 0.017811231 -0.030424962 0.04540048 0.04832231 -0.002149909 0.011460921
0.00082228804 0.0022454932 0.007276717 0.009507067 0.008605967 0.0058840546 0.010756893 0.013765933
0.015254868 0.007071555 0.0073112035 0.014139131 0.006145585 0.005012758 0.011542851 0.013260415
0.01469076 0.023174163 0.027678555 -0.0059934347 0.023598418 0.06596558 -0.024726557 -0.012088685
0.094745174 0.038626872 -0.036813784 0.062573075 0.06400382 0.055902246 0.04556122 -0.025248017

fc1.bias f4 [256]
00000000: d906 f23b 02aa 85bc b1c0 933c db9f 073d
00000010: 0a97 c93b 3aad 33bc fe5b 053c 3922 89bc
00000020: 9ba2 c6bc e7a0 993c 1706 0080 6d47 aa3b
00000030: b86b f23c 7483 96bc 076b 22b0 c537 2c3b
00000040: 4dd1 483b ee77 b7bb d6a6 31bb 872b 6f3d
00000050: 3d0c 5cbc 5a73 c0bb c564 a93c 3bc1 b5bc
00000060: fc69 783c 2fe7 353c 684f 5dbb e9a6 8bbb
00000070: b155 1dbc fcae 753c e2de 2d3c b00e b83c
00000080: 14d8 153d dc60 163d 4ad6 9dba c37d 6a3c
00000090: 257a b83c 3e8c 723c 7c55 f8ae 1637 45bc
000000a0: 1c41 6a3c 14e1 36b8 1c4f 33bd 522f d9bc
000000b0: ae7e b43b f57a 153d 171f 233c a462 b63c
000000c0: e1b9 35a1 cef2 833c 046a 52ba ee3a 15b8
000000d0: 8d63 373c 5c72 87b8 c716 2bbc 037e ef3c
000000e0: 8e34 b9b9 f46b 1b3d 9168 99bc 4c60 64bc
000000f0: 388b 5d3d 8e19 48bc 3e9d 73bc d265 4e3d
00000100: 30b0 7bb6 aab0 15af 5e0f 0dbc 4225 f83c
00000110: 2bfd 493c 2fc3 f3ba 979e 3b3c a30a bfbc
00000120: 42b7 edba a217 1abc 87d6 f4bb 1058 4dbc
00000130: 2e88 ae3b 4d79 033d 32f1 1b3d ef21 eabc
00000140: 222e d13c 3a63 7bb5 f886 a3ba 0158 e63c
00000150: 519a f23b 5997 003d 6d48 fdb5 4b53 4cba
00000160: ee28 0b3d 17e1 cd3c 8188 1bbb 74a4 183a
00000170: 503d 6f3c 5973 953c 0d28 2f3d e47c 61bc
00000180: a176 1ebc 65fc 2fb6 788e 333d 1f11 2d3d
00000190: 2c68 54bc e3a9 f73c 6d18 11bb 22de 4f3c
000001a0: f7b2 88bc 2e64 703c 4034 8d3c c47c a4bc
000001b0: 218a 8237 0f51 d53c b79d 03bd 8989 313c
000001c0: 3c91 c3bb 96e3 94bc fc17 dabc e02f 723a
000001d0: 0921 84bc bdbe 373c 9303 273d ee66 0ebd
000001e0: 5a32 80bb 7170 e5b9 ba9e 37bc 421a 62bc
000001f0: 273f 973b 551b f4b9 58a3 d0b8 d067 fdb7
00000200: d9d3 03b5 ea41 b4a5 b44a 2fb8 0586 81bc
00000210: 545f d83c c457 9d3c 617c 10bd 27c9 093c
00000220: c6e4 42b1 3794 0bbb 7f93 453c f315 41bc
00000230: 0cf7 3fb9 1482 573c 318c f23c 8cb3 59ba
00000240: 59fa edbb c2bb 3cb9 df7f a3bb 156d 98bc
00000250: 879c 71ba ab14 11bc 7f06 1abd 6285 e4bc
00000260: 1dc6 f23b 2210 483c 2cc1 033b cc9c 48b8
00000270: f48d 81bc 905b c33c 30f8 803c 6ea2 56b5
00000280: 13df 8bb9 111e 073d 3f26 a6bb c55b 863a
00000290: d3be 203d 9d86 d998 e8b8 d8ad 46d0 03bb
000002a0: d84b e7b9 3bf8 0eb4 5fcc 8c3c a03c 0e3c
000002b0: f917 013d b532 303d 096b f33c d59b 523d
000002c0: 63e8 ddbb 3cd8 d4ba d5a0 c43c ef07 a13b
000002d0: f90d 433d 433b afbc b92a 3fbc f4f7 edb9
000002e0: 0b87 593c 29ac 0439 3bee 8a3b 8cf8 afbc
000002f0: d13c 90bb a6dd acbb 536e 27bc 7ac8 2e3b
00000300: a2ff 0a3d 5cc6 b8bb 07d4 01af 5bd5 b2b8
00000310: c64e d7bc a1cb 023c 6d4f 0abc 0639 f6bc
00000320: 784c 35bb 6d88 71bb 37a3 24ae 8c9a 773c
00000330: 4081 f93a fc69 523c 4a5b f53b 7375 3a3d
00000340: b77a 5d3c 83f6 ff3b 5259 61bc 242e f83c
00000350: dadc 773b 6154 043c 863d 17ba 1c39 0dba
00000360: 3f28 01ba cb06 9b3b f8cb 7a3c a73c 99bb
00000370: 3007 d63c 6a8d 1f3a 5f7c 94b4 c681 8abb
00000380: 26ef 663c e969 14b8 7bff 64b6 05a8 b1bc
00000390: d71a 16bb d7a6 ef3c 0a34 c9bc 95b6 6a3c
000003a0: 8bac 41bd 9f62 03bd bbd1 d1b8 504c 723c
000003b0: 45fd e439 c47c 183d c685 fe37 8e1c 773b
000003c0: 48d9 33bc 03fb 1a3c 8d57 903b 66bc 43bc
000003d0: f32c 153d d3e7 c5bc f26e 95bc 79cf 5ebc
000003e0: 6ad7 91bc b1f6 913c d9f0 28af 540d 383d
000003f0: 2ee0 893d e29b cd3c 6302 813c cf4b 15bc
0.00738607 -0.016316418 0.018036218 0.033111434 0.0061520385 -0.010966593 0.008139608 -0.016739951
-0.024247458 0.018753482 -2.185e-42 0.005196503 0.02959238 -0.018373229 -5.908735e-10 0.0026278358
0.003064233 -0.0055990135 -0.0027107499 0.05839112 -0.013430652 -0.005873126 0.020677933 -0.022186866
0.015161987 0.011102482 -0.0033769254 -0.0042618406 -0.00960295 0.014995333 0.010612221 0.022467941
0.03658302 0.036713466 -0.0012042013 0.0143122105 0.02251918 0.014803944 -1.12929194e-10 -0.012037059
0.01429775 -4.36018e-05 -0.043776616 -0.026511822 0.0055082655 0.036494214 0.009956143 0.022263832
-6.1571194e-19 0.01610699 -0.0008026662 -3.557925e-05 0.011193168 -6.458603e-05 -0.010442442 0.029234892
-0.00035325106 0.03794475 -0.018726619 -0.013938975 0.054087847 -0.012213124 -0.014869032 0.050390072
-3.750447e-06 -1.3614235e-10 -0.008609621 0.030291203 0.012328426 -0.0018597598 0.011451385 -0.023320502
-0.001813628 -0.009405049 -0.0074718627 -0.012533203 0.0053262925 0.032098103 0.03807182 -0.028580634
0.025534693 -9.364918e-07 -0.0012476137 0.028118135 0.00740365 0.031394336 -1.8871048e-06 -0.0007794394
0.03397458 0.025131745 -0.0023732486 0.0005822845 0.01460202 0.018243479 0.042762805 -0.013762686
-0.009671838 -2.6223945e-06 0.04383704 0.042252656 -0.01296429 0.030232375 -0.0022139803 0.012687238
-0.0166869 0.014672322 0.017236829 -0.020079024 1.5561529e-05 0.026039628 -0.03213283 0.010836014
-0.005968241 -0.018174928 -0.026622765 0.00092387013 -0.016129034 0.011214909 0.040774893 -0.03476613
-0.0039122524 -0.0004376206 -0.011207277 -0.013800206 0.0046156826 -0.0004655967 -9.948638e-05 -3.0208292e-05
-4.910958e-07 -3.1269688e-16 -4.1792824e-05 -0.015810976 0.026412643 0.019206889 -0.035274867 0.008409775
-2.8360758e-09 -0.002129806 0.012059092 -0.011785018 -0.00018307212 0.013153572 0.029607864 -0.00083046476
-0.00726251 -0.00017999022 -0.0049896087 -0.018606702 -0.0009216745 -0.008855025 -0.03760385 -0.027895633
0.007408871 0.012210878 0.0020104153 -4.7829744e-05 -0.015814759 0.023847371 0.015743345 -7.995758e-07
-0.0002667835 0.032987658 -0.0050704773 0.0010250738 0.039244484 -5.622911e-24 -2.4638472e-11 -0.0020113154
-0.0004411626 -1.3315086e-07 0.017187295 0.008681446 0.031517003 0.043017108 0.029714124 0.051418144
-0.0067720874 -0.0016238759 0.024002472 0.004914276 0.047620747 -0.021390563 -0.011667901 -0.00045388902
0.013276826 0.00012652636 0.004239825 -0.021480821 -0.004401781 -0.005275446 -0.010219174 0.0026669786
0.033935197 -0.0056388807 -1.1807809e-10 -8.527442e-05 -0.02628268 0.007983119 -0.008441788 -0.030056488
-0.0027663987 -0.0036854998 -3.7434247e-11 0.01511253 0.0019035712 0.012842651 0.007487689 0.045522165
0.013518027 0.007811369 -0.013754206 0.030295439 0.0037820847 0.008076758 -0.00057693606 -0.0005387233
-0.00049269566 0.0047310344 0.015307419 -0.00467642 0.026126474 0.0006086441 -2.765764e-07 -0.004226896
0.014095103 -3.5384586e-05 -3.4123357e-06 -0.021686563 -0.0022904181 0.02925436 -0.024560947 0.0143257575
-0.04728369 -0.032076474 -0.00010004962 0.014788702 0.0004367625 0.03722836 3.0341453e-05 0.003770623
-0.010977097 0.00945926 0.004404968 -0.011946773 0.03641982 -0.024158394 -0.01824138 -0.01359927
-0.017802913 0.017817827 -1.5365077e-10 0.044934586 0.06732212 0.025098745 0.015748208 -0.009112312

fc2.weight f4 [10, 256]
00000000: 8b85 b2bd 98fa 743c c022 7e3d bc79 ccbd
00000010: 0038 1d3d d153 c53d a071 e5bd 04cd ce3c
00000020: ccfa ae3d 03e6 9ebc f611 45ba 7c5f ff3c
00000030: b133 92bd 26df d93c fbc1 793b 143e b63c
00000040: 1c67 823c 5a6f 623d cfd8 ecbc 6048 16bc
00000050: 4e66 ccbd e066 e3bb 2c58 533d ff03 3c3d
00000060: 1a66 aa3d 0cc9 c03c 9455 003d a731 8b3c
00000070: d14f a53d 80bd 853d 3666 0abd a6a1 563d
00000080: 342b 1dbd 1d09 e6bd 0436 1dbc de76 e3bd
00000090: 12c1 413d 6717 37bc c39f 3d38 1dd8 08bc
000000a0: d872 dfbc 273e debb de6e 5f3c 89e6 cbbd
000000b0: 8ace a4bd 3a46 84bb 9d7f e2bc 8407 113c
000000c0: 8800 0180 e509 b2bd 47bd 893b b6f6 e6ad
000000d0: eb74 c2bd d451 7abc bd8f aa3d 0975 a2bd
000000e0: 484c 413d fbef b1bd 665c a03d 5033 f3bc
000000f0: 60bd b13d 7938 59bd 1820 b8bb 3d58 15be
00000100: f3ca b0bc d558 0080 c50d 0b3c 8fd0 8abd
00000110: ee5e 25be 852f 88bc 346b 11be 2170 acbd
00000120: 7003 1e3a 094a ccbc 4a89 8cbc 3062 b3bd
00000130: a159 4abd 38a8 14be 6a25 5bbd d87a 1bbc
00000140: c1a4 9fbd 0d4d aa3b 44b9 a3bc a9a8 c8bd
00000150: f301 233d 0c9c 47bd a8d8 263c 6114 243a
00000160: 69c9 043e 3ce6 13bd 8904 043d 3818 d139
00000170: 11cc 033d 5852 2a3d b54b 623d 6d0a c03d
00000180: 02e6 0d3d 1c5d cfbc 4744 103d 42c2 08be
00000190: 05cb 813c 85f0 dabc 1ef4 38b9 ae41 97bc
000001a0: b997 31bc 2e00 fe3d 164a f43d 0ed0 273d
000001b0: 1cfa 96b9 6a56 89bd cac3 af3b cdee 0fbe
000001c0: f1f9 81ba 3505 1c3d 674c 85bc cc0b 4f36
000001d0: 3ed2 a53d 8f66 f0bc 2820 eabd 9447 94bd
000001e0: 90f7 1dbc c7d7 2cba 260f 0c3d e246 6dbc
000001f0: cc47 5dbd e7e0 1039 83b3 0fbb 7376 7030
00000200: e357 94bc 6918 5fbb abcb c93c 04d7 2cbb
00000210: 5565 1c3c 7c55 b73d 1bfa 793d 6983 993d
00000220: 7cd5 77ae af26 1b3d abd6 c03d f217 89bd
00000230: 8dc4 b437 d05f e03d 200d f7bd 659a cfb9
00000240: 7ea2 773d 456e 023a e398 a73d f0e4 843d
00000250: 55cc 9f3b 3e94 6a3d 83b5 c03d 3c01 853d
00000260: 36e4 9ebd 4e1a fcbd 7d8c 63bd 629a 07bb
00000270: 7b16 7dbd 4c09 21be 27af cabd 2c49 b63c
00000280: ad41 37bd 6fc5 e5bd 10ba fcbc 3955 ad3c
00000290: b305 55bd 6b80 8c11 fc32 5822 6f36 a93b
000002a0: 7b41 a63c 8a64 1c39 b36f 09be 7e20 4dbd
000002b0: 3f65 82bd 5e25 87bd 2a51 c2bd 17dc a1bd
000002c0: e8cb 263d 27c0 df3c 9f1a adbd 48cf fb3d
000002d0: 1895 4dbe 87f6 4a3c 60cc 2ebd 5080 dd3c
000002e0: 8639 d63c 0a39 8a35 f3b6 673d e012 023b
000002f0: 9052 dcba bd98 90bd c2d0 3abd ee8d c73d
00000300: f897 80bc c3c4 383d 1500 adb3 ef7c a2b7
00000310: 92d7 c7bc 3712 82bd bb29 e9bc 61ab 42bd
00000320: b2c3 303c af61 8dbc b82e 6abc abae 85bc
00000330: 3b80 293d 645d 73bd 7ee4 023e 100f b03d
00000340: 72b4 793d d136 973c c60b ef3d f0ea febd
00000350: 060b edbd 92c7 1a3d 13bc a4ac ba12 a63b
00000360: 7545 c13d c0f7 803d 93e2 14bd 0a2e 4bbd
00000370: fe82 92bc 8e13 95bc d99f a1bc 8f8c a43d
00000380: c169 873d e5ad 813c 0a11 9c36 fa57 973d
00000390: 8ffa dcbc 65ad 323d 87d6 8b3d 93b7 c53c
000003a0: b67c 4cbd 7ae5 a5bc 1ab7 32bc 447b 6ebd
000003b0: 63e4 053d d9d4 663d d1ce 1f3d f9bf bdbd
000003c0: 4e8a 16bc b615 013d a7c5 8dbd 5a42 68bd
000003d0: dace 1cbe 8375 de3d 57ed c4bb 3f5b 053d
000003e0: 91a3 5bb9 768c 93ba 91d7 93b8 ab86 97bc
000003f0: ef8d 41be 7dd0 a0bd 748f 8c3d 088d 9dbd
-0.087168775 0.014952324 0.06204486 -0.099841565 0.038383484 0.09635127 -0.11203313 0.025244243
0.085439295 -0.019396788 -0.000751763 0.03117346 -0.071387656 0.026595663 0.0038110006 0.022246398
0.015918307 0.055281974 -0.028911976 -0.009172529 -0.099804506 -0.006939754 0.05159776 0.04590225
0.083202556 0.023533367 0.031331614 0.01699145 0.080718644 0.06530285 -0.033788882 0.052400254
-0.03837128 -0.11232207 -0.009595398 -0.111066565 0.047303267 -0.011175013 4.52099e-05 -0.008352307
-0.027276441 -0.0067823115 0.013637273 -0.099560805 -0.08047207 -0.004036692 -0.027648741 0.0088518895
-9.2026e-41 -0.086932935 0.004203472 -2.6257534e-11 -0.094949566 -0.015278298 0.08328197 -0.07932479
0.047191888 -0.08688351 0.078301236 -0.029687554 0.086786985 -0.053032372 -0.0056190602 -0.14584441
-0.021581149 -3.1867e-41 0.00848717 -0.06778061 -0.16149494 -0.016624222 -0.14201051 -0.084198244
0.0006027734 -0.024937646 -0.017155308 -0.08758962 -0.049401883 -0.14517295 -0.053502478 -0.009489737
-0.07795096 0.0051971735 -0.019985802 -0.09797794 0.03979678 -0.048732802 0.010183491 0.000625914
0.12967457 -0.03610824 0.032230888 0.0003988163 0.032177035 0.041582435 0.05524798 0.093769886
0.03464318 -0.025312953 0.035221364 -0.13355353 0.015843878 -0.026726017 -0.00017638548 -0.018463936
-0.010839396 0.12402378 0.11928193 0.0409699 -0.00028796575 -0.06705935 0.005363916 -0.14055939
-0.0009916407 0.038090903 -0.016271783 3.085227e-06 0.08096741 -0.029345779 -0.114319146 -0.07240215
-0.009641543 -0.00065934326 0.034194134 -0.014482232 -0.05402355 0.00013816693 -0.0021927066 8.747982e-10
-0.018108314 -0.003404165 0.02463325 -0.0026373276 0.009545644 0.08951852 0.061029535 0.074957676
-5.635091e-11 0.03787869 0.09415945 -0.0669402 2.1549198e-05 0.10955775 -0.1206305 -0.0003959715
0.0604577 0.0004975538 0.08183458 0.06488979 0.004876653 0.05727028 0.094096206 0.06494376
-0.077583715 -0.12309705 -0.055553902 -0.0020691385 -0.061789017 -0.15726203 -0.09896689 0.022251688
-0.044740368 -0.11219298 -0.03085044 0.021158801 -0.05200739 2.216725e-28 2.930045e-18 0.0051639597
0.020294895 0.00014914773 -0.13421516 -0.050079815 -0.063669674 -0.06598924 -0.09488137 -0.07903307
0.040721804 0.027313305 -0.08452343 0.12295395 -0.20076406 0.012387878 -0.042675376 0.027038723
0.026150476 1.0298402e-06 0.05657096 0.0019847676 -0.0016809274 -0.070603825 -0.045609243 0.09743868
-0.015697464 0.04510952 -8.055955e-08 -1.9370082e-05 -0.024394784 -0.063511305 -0.028462281 -0.04752672
0.010788845 -0.017258493 -0.014293365 -0.01631864 0.041382056 -0.059415236 0.12782475 0.08596623
0.0609631 0.018458756 0.116721675 -0.124471545 -0.11574368 0.03778798 -4.6820408e-12 0.0050681503
0.09437076 0.062972546 -0.03634889 -0.049604453 -0.017884728 -0.018197801 -0.019729542 0.08034622
0.06611968 0.01582999 4.651146e-06 0.07389827 -0.026974944 0.043622393 0.06828027 0.024135387
-0.04992362 -0.020251025 -0.010907913 -0.058223024 0.03268851 0.05635533 0.039015595 -0.092651315
-0.009188248 0.031514846 -0.06922465 -0.056703903 -0.15313283 0.10862257 -0.0060097384 0.032557722
-0.00020946401 -0.0011257071 -7.0496586e-05 -0.018496832 -0.189018 -0.07852266 0.06863299 -0.07692915

fc2.bias f4 [10]
00000000: e87e a5bc bf3e 553d d8d7 a2bc 50f2 213c
00000010: d9f8 8c3c 521d 26bd 50db ddbc 0dce 4d3b
00000020: 3c51 02bd a67c 533c
-0.020202115 0.052061792 -0.019878313 0.009884432 0.017208504 -0.040555306 -0.027082115 0.0031403333
-0.031815752 0.0129081365
