src/mnist/DecoyMNIST/orig_model_decoyMNIST_.pt (torch, 935311 bytes, 8 tensors)

conv1.weight f4 [20, 1, 5, 5]
0	0x3e1f36fa	0.15548316
1	0xbdffb8f6	-0.124864504
2	0xbe816494	-0.25272048
3	0xbd496483	-0.04916812
4	0xbdb0987d	-0.08622835
5	0xbe85bfd8	-0.26122928
6	0xbd483944	-0.048882738
7	0xbe8d8abe	-0.27644914
8	0x3e1c7f8c	0.1528303
9	0x3d2a6ada	0.041605808
10	0x3d03a2d2	0.0321377
11	0x3e14ecba	0.14543429
12	0x3efa6e69	0.4891236
13	0x3eab58c2	0.33466154
14	0x3e8d7858	0.27630877
15	0x3e8aaf0b	0.27086672
16	0x3e3a5ad7	0.18198715
17	0x3e06547e	0.13118169
18	0xbe9fcbdf	-0.3121023
19	0xbe28f42f	-0.16499399
20	0xbd9deef0	-0.07711589
21	0xbea148e5	-0.31500927
22	0xbe7643cd	-0.24049301
23	0xbd684fe0	-0.0567168
24	0xbe071ff2	-0.1319578
25	0xbe56bb06	-0.20969781
26	0xbc5f8e0c	-0.013644706
27	0x3e7eb805	0.24874885
28	0x3e470844	0.19436747
29	0xbb7995fb	-0.003808378
30	0x3d71f255	0.059068996
31	0x3e5261fb	0.20545189
32	0x3d33f332	0.0439331
33	0xbda938b6	-0.0826277
34	0xbe79d4ea	-0.24397627
35	0x3e970fc3	0.29504213
36	0x3bc36908	0.0059634484
37	0xbdd559aa	-0.10417493
38	0xbe886e9c	-0.26646888
39	0x3d8c68b8	0.06855911
40	0x3c92d815	0.017925302
41	0xbe7a5058	-0.24444711
42	0xbe027b17	-0.12742268
43	0xbdc02f26	-0.09383993
44	0x3e050cea	0.12993208
45	0x3c40fbb6	0.011778763
46	0x3b0eb258	0.0021773782
47	0x3e16184e	0.14657709
48	0xbc1a923b	-0.009434278
49	0x3e27e18f	0.16394638
50	0x3e1da8bf	0.15396403
51	0xbc6b7071	-0.01437007
52	0x3da2193d	0.0791497
53	0x3d9d6c47	0.07686668
54	0xbe569df0	-0.20958686
55	0xbd281bfc	-0.041042313
56	0x3da897b8	0.08232063
57	0x3db71b83	0.08940794
58	0x3d109c6c	0.035305426
59	0xbee1d1a4	-0.44105256
60	0xbcdae8da	-0.02672236
61	0xbda34fff	-0.079742424
62	0x3ed05949	0.4069312
63	0x3eaeaa98	0.34114528
64	0xbe9a39f5	-0.30122343
65	0xbd8d5e69	-0.06902773
66	0xbe91ac34	-0.28451693
67	0x3e501a77	0.20322596
68	0x3e88f783	0.26751336
69	0xbd4f4e73	-0.050611924
70	0x3e084458	0.13307321
71	0xbeabd6b8	-0.33562255
72	0xbc25d035	-0.010120441
73	0x3e781965	0.24228437
74	0x3bf2feca	0.007415627
75	0x3dd3025c	0.103031844
76	0x3e4fce8e	0.20293638
77	0x3dbf710e	0.09347735
78	0xbe0cbe22	-0.13744405
79	0xbd82c0f1	-0.06384457
80	0x3d996ea8	0.07491809
81	0x3e1a0cbb	0.15043919
82	0xbd047940	-0.032342196
83	0xbe1a1400	-0.15046692
84	0xbdbcde8e	-0.092221364
85	0x3e00037f	0.12501334
86	0x3e0f8a5c	0.14017624
87	0xbd8fe6c1	-0.07026435
88	0xbe5d043d	-0.21583648
89	0x3b4a4334	0.003086281
90	0x3e5c78e3	0.2153049
91	0x3e3366e6	0.17519721
92	0xbe69e19a	-0.22839966
93	0xbd225ffb	-0.039642315
94	0xbe41dd2d	-0.18932028
95	0x3ded236b	0.11579021
96	0x3e340355	0.17579396
97	0xbe53839a	-0.20655671
98	0xbe0de299	-0.13855971
99	0xbd6363f1	-0.055515233
100	0xbc883c43	-0.016630298
101	0x3e2e8645	0.17043407
102	0x3e0dedb5	0.1386021
103	0x3b9ddfdd	0.0048179463
104	0xbe834705	-0.2564012
105	0xbdad9f8b	-0.08477696
106	0xbe34a0ba	-0.17639437
107	0x3e8a61c1	0.27027705
108	0x3da53e30	0.08068502
109	0xbe9adddc	-0.3024739
110	0x3d283fac	0.041076347
111	0xbdd10b0f	-0.102071874
112	0xbdeb44c2	-0.11487724
113	0x3e711cfe	0.23546216
114	0x3e3a372d	0.1818511
115	0xbe432564	-0.19057232
116	0x3dc53fb1	0.09631289
117	0xbe12758e	-0.14302656
118	0x3e36d318	0.17853963
119	0xbd5e041f	-0.05420315
120	0xbc86d177	-0.016457302
121	0x3e36cb53	0.17851
122	0xbe4fc692	-0.20290592
123	0x3daabd9f	0.083369486
124	0xbd8a4790	-0.06751931
125	0x3d6d60f6	0.057953797
126	0xbe7fdf48	-0.24987519
127	0xbddbb9cc	-0.10728797
128	0x3d0e7992	0.034783907
129	0x3e714ba8	0.23564017
130	0xbdbe0b73	-0.092795275
131	0xbea72736	-0.32647103
132	0x3ddf10b6	0.10891859
133	0x3ef0ab66	0.47005767
134	0xbdeb81b2	-0.11499347
135	0x3d8a7c2f	0.067619674
136	0xbe588262	-0.21143487
137	0x3ee2744f	0.4422936
138	0x3e92115d	0.28528872
139	0xbedf40d7	-0.43604156
140	0xbda865a6	-0.08222513
141	0xbdc18165	-0.09448508
142	0x3ec00d1c	0.37510002
143	0xbe673d2a	-0.22581926
144	0xbde12883	-0.10994055
145	0x3e0c2191	0.1368468
146	0x3d9ea398	0.07746047
147	0x3d71a68f	0.058996733
148	0x3b9edf2c	0.0048483815
149	0xbe4d3d65	-0.20042951
150	0x3e36c165	0.17847212
151	0x3e553d15	0.20824082
152	0x3d2b1a4c	0.041773126
153	0xbe0343d4	-0.12818843
154	0xbe836b13	-0.2566763
155	0xbca8f540	-0.020624757
156	0x3e01350f	0.12617896
157	0x3d6fc93d	0.058541525
158	0xbe0999d8	-0.13437593
159	0xbe5f774a	-0.21822849
160	0xbc91d018	-0.017799422
161	0x3ea6c09e	0.3256883
162	0x3e4df91f	0.20114563
163	0x3d2ed0b2	0.042679496
164	0xbdaa03e1	-0.08301521
165	0xbdea438e	-0.11438666
166	0x3da5bc7b	0.080925904
167	0x3ea20ea6	0.316518
168	0x3e4964e8	0.19667399
169	0xbe199f01	-0.15002061
170	0x3d1a223b	0.0376303
171	0xbd77dd24	-0.06051363
172	0x3e85a410	0.26101732
173	0x3e954645	0.29155174
174	0xbe0af7ff	-0.13571166
175	0x3d9252cc	0.071446985
176	0x3e3b56df	0.18294857
177	0x3e9b4b3f	0.30330846
178	0xbe88151e	-0.2657861
179	0xbddb2174	-0.1069974
180	0xbdf20dc1	-0.118190296
181	0x3ddbf27a	0.10739608
182	0x3eb15dc9	0.34641865
183	0xbe34b899	-0.17648543
184	0xbe4db49e	-0.20088431
185	0xbd790fd7	-0.06080612
186	0x3e498eb7	0.19683348
187	0x3eb40739	0.3516176
188	0xbe4e459e	-0.20143744
189	0xbe9f580e	-0.31121868
190	0xbc1adb6c	-0.009451728
191	0x3e306411	0.17225672
192	0x3e0f7815	0.14010651
193	0xbe34506d	-0.17608805
194	0xbe008edc	-0.12554497
195	0x3e375b7d	0.17905994
196	0x3e36feb1	0.17870595
197	0x3d9e1eeb	0.07720741
198	0x3cdec8ef	0.027195422
199	0xbdd867b2	-0.10566653
200	0xbca62b60	-0.020284355
201	0x3d8e66e3	0.06953218
202	0xbd80cbbf	-0.062888615
203	0xbd8125b1	-0.06306017
204	0xbdc42f3c	-0.09579322
205	0xbdad6627	-0.0846675
206	0xbe41a739	-0.18911447
207	0x3c6d5939	0.014486604
208	0xbd9710ab	-0.07376226
209	0xbe108491	-0.1411307
210	0x3daf4f64	0.085600644
211	0x3d3cefb0	0.04612702
212	0xbe29ffb4	-0.16601449
213	0xbe35c471	-0.17750718
214	0xbe0535ed	-0.13008852
215	0xbd69b500	-0.05705738
216	0x3d839558	0.064249694
217	0xbd9ecaa0	-0.077534914
218	0xbd817afa	-0.06322284
219	0xbd6bc5f8	-0.057561845
220	0x3d350e7f	0.044203278
221	0xbc94da5b	-0.018170526
222	0x3d424181	0.04742575
223	0x3d9cdbc2	0.07659103
224	0x3d36bc6b	0.044613283
225	0x3d5cda4c	0.05391912
226	0x3db0d915	0.08635155
227	0x3e6921e5	0.22766836
228	0xbdc23422	-0.094826
229	0x3d68f56f	0.05687469
230	0x3e4098c4	0.18808275
231	0xbd0951d8	-0.033525318
232	0x3d19d229	0.03755394
233	0x3bcb2a05	0.0062000775
234	0x3ea47a16	0.32124394
235	0x3e14f4bd	0.14546485
236	0x3d63f001	0.055648807
237	0x3e6a4cfe	0.22880933
238	0x3e94a0e5	0.29029003
239	0x3e9ee87d	0.3103675
240	0xbe4aa29a	-0.1978859
241	0x39a4e91a	0.00031454192
242	0xbe3fa0cf	-0.18713687
243	0xbe2d7a6d	-0.16941233
244	0xbe730987	-0.23734103
245	0xbe08daf4	-0.13364774
246	0xbd9a4f69	-0.075346775
247	0xbe65b980	-0.22434044
248	0xbe8ba938	-0.2727754
249	0xbe8d5768	-0.27605748
250	0xbcf80a98	-0.030278489
251	0x3d8491d7	0.06473129
252	0xbe58f28e	-0.21186277
253	0xbe6b5879	-0.22982968
254	0xbe2c3d38	-0.16820228
255	0xbdc64b57	-0.09682339

conv1.bias f4 [20]
0	0xbe5bfcd9	-0.21483172
1	0xbe06be16	-0.1315845
2	0xbe21c0db	-0.15796225
3	0xbe53a951	-0.20670058
4	0xbe5c8d8a	-0.21538368
5	0xbe3ed5c2	-0.1863623
6	0xbe641df3	-0.2227705
7	0xbe2d83f9	-0.16944875
8	0xbe0fa259	-0.14026774
9	0xbd418c48	-0.047252923
10	0xbc1c6f67	-0.009548045
11	0xbe213173	-0.1574152
12	0xbe00fb64	-0.12595898
13	0xbe0c6675	-0.1371096
14	0xbc14bd6c	-0.009078365
15	0xbd30d75c	-0.043174133
16	0xbea4f936	-0.32221383
17	0xbe13bf90	-0.14428544
18	0xbe64360c	-0.22286242
19	0xbe5aa4d6	-0.21351942

conv2.weight f4 [50, 20, 5, 5]
0	0x3dd11bd0	0.10210383
1	0xbd708dc2	-0.05872894
2	0x3c5d8c7c	0.013522264
3	0xbd8ed223	-0.06973674
4	0xbd872ff7	-0.066009454
5	0x3e2bdc03	0.16783147
6	0x3d564729	0.052313957
7	0xbdf07f22	-0.11742999
8	0xbe2a2761	-0.16616584
9	0xbda24e0a	-0.07925041
10	0x3de0facf	0.10985338
11	0x3c3d176a	0.011541227
12	0xbe1e1451	-0.15437438
13	0xbd39ae79	-0.045332406
14	0xbd5e7804	-0.054313675
15	0xbd796315	-0.060885508
16	0xbc785f78	-0.01515948
17	0xbbcca259	-0.0062449393
18	0xbcf04c23	-0.02933318
19	0xbde4c397	-0.11170118
20	0xbd1aaf1f	-0.037764665
21	0x3d9e4513	0.077280186
22	0xbd6affba	-0.057372786
23	0x3b09fc03	0.0021054752
24	0x3db481e6	0.08813839
25	0xbbe885fb	-0.00709605
26	0xbdc9c054	-0.09851137
27	0xbe512467	-0.20424043
28	0x3c891f0a	0.016738433
29	0x3dbfe223	0.09369304
30	0x3c4d5f61	0.012534947
31	0xbdc5e631	-0.09663046
32	0xbd4a7dff	-0.049436565
33	0x3d46efbe	0.04856848
34	0x3d62a583	0.055333626
35	0x3dbc2f0d	0.09188662
36	0x3bc27649	0.005934511
37	0xbda39290	-0.07986939
38	0xbc94cc20	-0.01816374
39	0x3cdfd7a5	0.027324507
40	0x3da297a9	0.07939083
41	0xbd938365	-0.07202796
42	0xbd8e949b	-0.06961938
43	0xbc0e18af	-0.008672877
44	0x3beb66b6	0.007183875
45	0xbd9ceef0	-0.07662761
46	0xbd99d87c	-0.07511994
47	0x3d0dc123	0.034608018
48	0x3cde021e	0.027100619
49	0xbd78dea8	-0.060759217
50	0xbd3260b5	-0.04354926
51	0x3dd2fe44	0.103024036
52	0xbd4d41cb	-0.050111573
53	0x3c80e851	0.015735777
54	0xbd2afcd4	-0.041745022
55	0xbdcdd302	-0.10050012
56	0xbbbd03d6	-0.0057682795
57	0xbda7817d	-0.08178995
58	0x3d7b2511	0.061314646
59	0x3de728aa	0.11287053
60	0xbe3170d0	-0.17328191
61	0xbcb0fcb9	-0.021604883
62	0x3d1893dd	0.03725039
63	0x3d676415	0.05649193
64	0x3d91daac	0.071217865
65	0xbd209a4f	-0.03920966
66	0x3d845000	0.06460571
67	0x3d0ccc71	0.034374658
68	0x3de05858	0.1095435
69	0x3d76c845	0.060249586
70	0xbc6fe947	-0.01464302
71	0x3da30a7f	0.07960986
72	0x3d20013e	0.039063685
73	0x3dccb942	0.099962726
74	0x3dd732dd	0.10507748
75	0xbcb661dd	-0.022263462
76	0xbcfc8471	-0.030824872
77	0xbd062ffb	-0.0327606
78	0xbcec955e	-0.028879818
79	0x3da3ee1d	0.08004401
80	0xbd4fb4f7	-0.05070969
81	0xbdd90bc1	-0.10597945
82	0xbd746a3f	-0.059671637
83	0x3d24a982	0.040200718
84	0x3d1b6fa1	0.037948254
85	0x3c99f49f	0.018793402
86	0xbd044209	-0.03228954
87	0xbd7bbc96	-0.061459146
88	0x3caa77f6	0.020809155
89	0x3da95770	0.082686305
90	0x3c257ecf	0.010101034
91	0xbd2efcc2	-0.042721517
92	0xbd0f81f4	-0.035036042
93	0xbca55764	-0.020183273
94	0xbcff3bc8	-0.031156436
95	0xbd21c821	-0.0394975
96	0xbde11136	-0.10989611
97	0xbd376162	-0.044770606
98	0xbd1589f4	-0.036508515
99	0xbe16d7aa	-0.14730707
100	0x3cc36cac	0.02385553
101	0x3dd9a9c8	0.10628086
102	0x3d1a8229	0.037721787
103	0xbc8a130d	-0.016854787
104	0xbc914298	-0.01773195
105	0xbd02d8a8	-0.0319449
106	0xbcbb2f0e	-0.022849586
107	0xbd189dc4	-0.037259832
108	0x3cc2d0d3	0.023781216
109	0x3d5e7cd8	0.05431828
110	0xbce36d15	-0.027761975
111	0xbcd3cced	-0.025854552
112	0x3cbcafef	0.02303311
113	0xbd4a2124	-0.04934801
114	0x3da6a542	0.08136989
115	0xbd1fd453	-0.039020848
116	0x3d49e9ae	0.04929512
117	0xbcfb880e	-0.030704524
118	0x3cd0719b	0.025444796
119	0x3d21f467	0.03953972
120	0xbd1dbfaf	-0.03851288
121	0x3da8da3d	0.08244751
122	0x3daf5315	0.085607685
123	0x3ded5e4f	0.115902536
124	0x3ded9644	0.116009265
125	0xbde2e128	-0.110781014
126	0xbd578098	-0.05261287
127	0x3bffe865	0.007809686
128	0x3da60fcd	0.081084825
129	0x3dd716aa	0.1050237
130	0xbd2bc8f1	-0.04193968
131	0x3cc2df17	0.023788018
132	0xbb88f0a8	-0.004179079
133	0x3d13eda3	0.0361153
134	0x3dd17b6f	0.10228621
135	0x3d8a817a	0.06762977
136	0x3bc67af0	0.0060571358
137	0xbd23f700	-0.04003048
138	0x3deb3cec	0.11486229
139	0x3e225622	0.1585317
140	0x3c67bb60	0.014143795
141	0x3d547ab5	0.051874835
142	0xbd6c5f49	-0.05770806
143	0xbbab2c56	-0.005223791
144	0x3dede63b	0.116161786
145	0xbd776632	-0.060400195
146	0x3b9be2ba	0.0047572525
147	0xbe392c77	-0.18083368
148	0xbdcd1d91	-0.10015405
149	0x3d603502	0.054738052
150	0xbc1d1610	-0.00958778
151	0x3db84766	0.08997993
152	0x3db497b1	0.08817995
153	0x3d12c1c3	0.035829317
154	0x3a88850a	0.0010415625
155	0xbdab3708	-0.08360106
156	0xbd49c3f4	-0.04925914
157	0x395398fa	0.00020179516
158	0x3d0f04c3	0.03491665
159	0x3d78026e	0.060549192
160	0xbe1e23d5	-0.15443356
161	0xbd4a7a97	-0.049433317
162	0x3d2a4084	0.041565433
163	0x3db35ca7	0.087579064
164	0xbca744c4	-0.020418532
165	0xbd322921	-0.043496255
166	0x3db26d95	0.08712307
167	0x3d125c97	0.03573283
168	0x3d55b410	0.052173674
169	0x3d29cc6c	0.041454718
170	0x3ca043d9	0.019563602
171	0x3c8bf9c6	0.017086875
172	0x3d515164	0.05110301
173	0xba6e564c	-0.0009091839
174	0x3d4ba564	0.049718276
175	0xbd536423	-0.05160917
176	0x3d81ecd2	0.06343998
177	0x3d082a4a	0.033243455
178	0x3d991033	0.07473793
179	0x3e0bed17	0.13664661
180	0xbdd4da8a	-0.103932455
181	0xbd066b36	-0.032817088
182	0x3d47ab47	0.048747327
183	0x3d8a19a1	0.067431696
184	0x3e01db95	0.1268142
185	0xbd73c01c	-0.05950938
186	0xbd23fb8e	-0.040034823
187	0x3c090432	0.008362817
188	0x3b8d0667	0.0043037417
189	0x3dd35b38	0.10320133
190	0xbc93f564	-0.018061347
191	0xbd67dc80	-0.05660677
192	0x3d03bec6	0.032164358
193	0x3d356471	0.04428524
194	0x3cf3a4f4	0.029741742
195	0xbcd42486	-0.025896322
196	0xbdedfd59	-0.11620588
197	0xbd29dcf9	-0.0414705
198	0xbd45ff99	-0.04833946
199	0xbdaccc8d	-0.084374525
200	0xbb84407c	-0.0040360074
201	0xbc947b30	-0.018125147
202	0xbdf09466	-0.11747055
203	0xbc849945	-0.016186366
204	0x3da8e37d	0.08246515
205	0x3c47e122	0.012199672
206	0xbd99809a	-0.07495232
207	0xbc4a50e8	-0.012348391
208	0xbd646034	-0.05575581
209	0xbc2af08a	-0.010433326
210	0xbd17c9e8	-0.037057787
211	0xbdc1ffd0	-0.094726205
212	0xbd75dcf8	-0.060025185
213	0xbd7ab70c	-0.061209723
214	0xbda820df	-0.08209395
215	0xbd41f266	-0.04735031
216	0xbd6d365f	-0.05791318
217	0xbda1d8eb	-0.07902702
218	0xbde286c6	-0.11060862
219	0xbd82371c	-0.063581675
220	0xbcdbcc24	-0.02683074
221	0xbc4fe336	-0.012688449
222	0xbd3a430b	-0.045474093
223	0xbda49dab	-0.08037885
224	0xbdc17c26	-0.094475076
225	0x3cd92d98	0.026510999
226	0xbdf83f2f	-0.12121426
227	0xbdde203c	-0.10845992
228	0xbdd4330c	-0.10361299
229	0xbd805c3e	-0.06267594
230	0xbb891cdf	-0.00418435
231	0xbdef4622	-0.11683299
232	0xbdffae2b	-0.12484392
233	0xbd930723	-0.071790956
234	0xbdc91163	-0.098177694
235	0xbd55179b	-0.052024465
236	0xbe03b2c3	-0.12861161
237	0xbd89d3ef	-0.06729876
238	0xbdaa1d5c	-0.08306381
239	0xbd407c63	-0.046993624
240	0xbdd3653d	-0.10322044
241	0xbd940cd1	-0.07229007
242	0x3c4e40a5	0.012588655
243	0xbc85a9d0	-0.016316324
244	0xbcbe4f3d	-0.023231143
245	0xbd839b01	-0.06426049
246	0xbc8e8ee8	-0.017402127
247	0x3cd78cdf	0.02631229
248	0x3d0bf278	0.034166783
249	0x3dc4a427	0.09601622
250	0x3d042fc2	0.032272108
251	0x3d9a5b22	0.075369135
252	0x3d3fe1cd	0.0468462
253	0xbc6b24f5	-0.014352073
254	0xbb8fe82f	-0.004391692
255	0x3d4cd57d	0.050008286

conv2.bias f4 [50]
0	0xbbdc3121	-0.006719724
1	0xbdb07224	-0.086155206
2	0xbdae28bc	-0.08503863
3	0xbcd47023	-0.025932377
4	0x3b45bf9c	0.0030174023
5	0xbd104339	-0.03522036
6	0xbcc135be	-0.023585197
7	0xbd17ebd3	-0.037090134
8	0xbd0c8d79	-0.034314606
9	0xbbf41697	-0.007448982
10	0xbd136860	-0.03598821
11	0xbd4a27d6	-0.049354397
12	0xbcadd211	-0.021218332
13	0xbbce8769	-0.0063027632
14	0x9871b4fa	-3.123989e-24
15	0xbd9cf5af	-0.07664048
16	0x3b07b11f	0.0020704938
17	0xb08f722c	-1.0437069e-09
18	0xbdca4962	-0.09877278
19	0xbd02b5ee	-0.031911783
20	0xbd938efb	-0.07205006
21	0xbd3a0c80	-0.045422077
22	0xbd553dee	-0.052061014
23	0xbcb548c6	-0.022129428
24	0xb9530c41	-0.00020127093
25	0xbca782a2	-0.020448033
26	0xbd678730	-0.05652541
27	0xbd44d2e6	-0.04805269
28	0x9f082618	-2.883063e-20
29	0xbd0de23c	-0.034639582
30	0xbda817ea	-0.08207686
31	0xbd421e29	-0.047392044
32	0xbd1c28aa	-0.038124718
33	0xbd2b07bb	-0.04175542
34	0xbd2de672	-0.042456098
35	0xb6baa6a7	-5.562633e-06
36	0xbd64488f	-0.05573326
37	0xbd1080a4	-0.03527893
38	0xbd948ac7	-0.07253032
39	0xbd8eeac3	-0.06978371
40	0xbd5d1524	-0.05397524
41	0xbd209ebb	-0.039213877
42	0xbcaea626	-0.02131946
43	0xbd1773c1	-0.036975626
44	0xbd8645ac	-0.065562576
45	0xbdb558ed	-0.08854852
46	0x3d9a85b3	0.07545032
47	0xbd8af389	-0.06784732
48	0xbd5c4fa7	-0.0537869
49	0xb9982c59	-0.0002902474

fc1.weight f4 [256, 800]
0	0x3d8ee6bf	0.06977605
1	0xbd0687fa	-0.03284452
2	0xbc8c3f8d	-0.017120147
3	0xbceb1772	-0.028697703
4	0x3d4e30c7	0.050339486
5	0xbd06a966	-0.032876395
6	0x3cc6bd47	0.024260176
7	0x3cf621a0	0.03004533
8	0xbdb81e53	-0.08990159
9	0xbd3e6d18	-0.04649076
10	0xbbafaae6	-0.005360949
11	0x3db0ffa5	0.0864251
12	0xbd4d8c7e	-0.050182812
13	0xbde14098	-0.109986484
14	0xbd1f71f2	-0.038927026
15	0x3df6d422	0.1205218
16	0x3c978d80	0.01850009
17	0xbc60b73d	-0.013715562
18	0xbbaf18c9	-0.005343531
19	0xbc59ad1d	-0.013285902
20	0xbb3ba001	-0.0028629305
21	0xbb7ce1f2	-0.0038586822
22	0x3ce9f6fc	0.028560154
23	0xb9838fb2	-0.00025093328
24	0xbd1bf499	-0.038075063
25	0x3b900a5a	0.0043957653
26	0x3b990bcd	0.004670596
27	0x3c8811a7	0.01660998
28	0x3c4e854e	0.0126050245
29	0x3ba0871d	0.0048989193
30	0x3b279e8a	0.0025576674
31	0xbb95ab5b	-0.0045675463
32	0xbdf3444f	-0.11878263
33	0xbc88dcf2	-0.016706917
34	0x3b486fda	0.0030584247
35	0xba0735c0	-0.00051578507
36	0xbd6d3bc1	-0.057918314
37	0x3d14b76c	0.036307737
38	0x3db6da27	0.08928328
39	0x3d0e33a9	0.034717236
40	0x3db53b44	0.08849195
41	0x3d8cf88d	0.06883345
42	0x3d551706	0.05202391
43	0x3cdfb1fc	0.02730655
44	0x3d5ad7c3	0.053428423
45	0x3d363be6	0.044490717
46	0xbd525b47	-0.05135658
47	0x3db50c39	0.08840222
48	0xbc242129	-0.010017672
49	0xbdbc331d	-0.091894366
50	0xbde067c0	-0.10957289
51	0x3d6c95c3	0.05776001
52	0xbd6405ed	-0.055669714
53	0xbd19ed29	-0.03757969
54	0x3d349015	0.04408272
55	0x3c01eaec	0.007929545
56	0xbd90300d	-0.07040415
57	0xbd1253e3	-0.03572453
58	0x3e0f8a39	0.14017572
59	0x3dacbea5	0.084348
60	0xbd48bc23	-0.049007546
61	0xbd7ce2a5	-0.061739583
62	0x3da173fc	0.078834504
63	0xbc347237	-0.011013559
64	0xbd4f4e1a	-0.050611593
65	0x3ccb898e	0.024845865
66	0xbd982597	-0.07429045
67	0xbd8ef5c3	-0.06980469
68	0xbc693617	-0.014234087
69	0x3d6a79e7	0.05724516
70	0x3db48185	0.088137664
71	0x3d9779f1	0.07396305
72	0xbd0424d5	-0.03226169
73	0xbd2d8272	-0.04236073
74	0xbca1d23d	-0.01975357
75	0x3d061fe4	0.032745257
76	0xbc5d7511	-0.01351668
77	0xbd399cc9	-0.045315538
78	0x3ca5d8e3	0.020245021
79	0x3cd2e439	0.02574359
80	0x3c012c99	0.007884168
81	0x3d323d55	0.043515522
82	0x3cd7a0b7	0.026321752
83	0x3bb7ea7f	0.005612671
84	0x3d3c89ce	0.04602986
85	0x3da183bb	0.07886454
86	0x3d25ac97	0.040447798
87	0x3cb7aaa9	0.022420244
88	0x3d6ac3fa	0.057315804
89	0x3daa8873	0.08326807
90	0xbc407e54	-0.011748869
91	0x3bc0f80e	0.0058889454
92	0xbdb34cfa	-0.087549165
93	0xbd5b16cc	-0.053488538
94	0x3bc6d23a	0.0060675414
95	0xbb256dcb	-0.0025242444
96	0x3b9d37a2	0.0047978917
97	0xbbef5834	-0.007304216
98	0x3d222d97	0.03959426
99	0x3d6955f6	0.056966744
100	0xbc40bda1	-0.011763961
101	0x3d0254e4	0.03181924
102	0x3d5414ec	0.051777765
103	0x3d602d8d	0.05473094
104	0x3ce0a968	0.02742453
105	0x3d273b67	0.040828135
106	0xbd6cff5f	-0.05786073
107	0xba7d8e95	-0.00096724305
108	0x3d8bdfde	0.06829809
109	0x3a4d9e4a	0.00078437163
110	0xbd4517d6	-0.048118435
111	0xbcd14ccc	-0.025549315
112	0xbcaf78fc	-0.021419995
113	0x3d3cc5ab	0.04608695
114	0x3ddfe772	0.109328166
115	0x3ddc49be	0.10756253
116	0x3d987fdc	0.07446262
117	0x3da8f83f	0.08250474
118	0xbca64197	-0.020294948
119	0xbc408814	-0.011751194
120	0x3cb8050b	0.022463342
121	0x3d4f8dae	0.050672226
122	0xbcdccce8	-0.026953176
123	0x3d86fc7a	0.06591125
124	0xbb55fbde	-0.0032651345
125	0xbca4ab8d	-0.020101333
126	0xbd982a86	-0.07429986
127	0xbd4a6456	-0.049412094
128	0xbc340259	-0.010986888
129	0x3d0ec97b	0.034860115
130	0x3da92554	0.08259073
131	0xbaf3b0d2	-0.0018592125
132	0x3da48f9c	0.08035204
133	0x3e034b6e	0.12821743
134	0x3c78620e	0.015160097
135	0xbb414df7	-0.0029495934
136	0x3d171a31	0.036890212
137	0x3d1bcdb8	0.038037986
138	0x3c11cfb9	0.008899623
139	0x3ca0aa90	0.01961258
140	0xbab2669a	-0.00136109
141	0xbd2dcb55	-0.04243024
142	0xbdb3dfb5	-0.08782903
143	0xbce7db70	-0.028302878
144	0x3d083cd6	0.033261143
145	0x3c073b7d	0.008253929
146	0x3a912c99	0.0011075913
147	0x3af188fa	0.0018427663
148	0x3d919b20	0.07109666
149	0x3caf3d2e	0.021391477
150	0xbc101777	-0.008794657
151	0xbb8cc09d	-0.004295422
152	0xbd25eb9e	-0.040507905
153	0xbcc716ad	-0.024302805
154	0x3ca9a26a	0.020707328
155	0x3c72f3d0	0.014828637
156	0xbd6f2519	-0.05838499
157	0xbd17620f	-0.03695875
158	0x3c5e355d	0.0135625275
159	0x3dc00a57	0.09376972
160	0x3c620dc0	0.013797224
161	0xbc7c6fca	-0.015407512
162	0x3d00e25f	0.031465884
163	0x3b1299af	0.0022369435
164	0x3c9ed181	0.019387009
165	0x3ce8c355	0.028413454
166	0x3c0fcfd8	0.008777581
167	0x3c1be038	0.009513907
168	0x3cb94e8a	0.022620458
169	0x3c76193b	0.015020664
170	0x3c3059af	0.01076357
171	0xbd21dc03	-0.03951646
172	0x3ca040ea	0.019562203
173	0x3cad7fc0	0.02117908
174	0x3caad08f	0.020851402
175	0xbd0a547a	-0.03377197
176	0x3d8383ce	0.06421624
177	0xbcbd3baf	-0.023099748
178	0xbc7641ea	-0.015030364
179	0xbc853fb9	-0.016265737
180	0x3db7047e	0.08936404
181	0xba0f2db5	-0.0005461828
182	0x3d32fb82	0.043696888
183	0xbcf73e00	-0.030180931
184	0x3d144d7a	0.0362067
185	0x3c364e77	0.011127106
186	0xbd82b5dd	-0.06382344
187	0xbd082de8	-0.033246905
188	0xbc970a17	-0.018437428
189	0xbdda157d	-0.1064863
190	0xbd1a551c	-0.037678823
191	0x3cb5a842	0.022174958
192	0x3d8fb16c	0.070162624
193	0xbcd9b05d	-0.026573354
194	0x3c14cace	0.0090815555
195	0x3c8e01b2	0.017334793
196	0x3d11ec6f	0.03562587
197	0x3cee07a4	0.029056378
198	0x3c8b5953	0.017010367
199	0x3c5bf578	0.0134252235
200	0xbd44a2be	-0.048006766
201	0xbd93faaa	-0.07225545
202	0x3d7c9e59	0.06167445
203	0x3c44ff72	0.0120237935
204	0xbdb07b98	-0.08617324
205	0xbde8babc	-0.11363742
206	0x3d502910	0.05082041
207	0x3e138684	0.14406782
208	0x3c47acc3	0.012187186
209	0x3d33df61	0.043914203
210	0xbd4d1c82	-0.050076015
211	0xbd2f516b	-0.042802256
212	0xbd9f8ae6	-0.07790165
213	0xbc8e4872	-0.017368529
214	0x3cb3be35	0.021941284
215	0xbd60f65e	-0.054922454
216	0x3da3bcb2	0.07994975
217	0x3d306b29	0.043070946
218	0xbd08e998	-0.033425897
219	0xbcb7ebf8	-0.022451386
220	0x3d6c8e64	0.05775298
221	0xbd277516	-0.040883146
222	0xbd08329d	-0.033251394
223	0x3ca4658e	0.020067956
224	0x8000137e	-6.992e-42
225	0x0000ddd7	7.9581e-41
226	0x0000c988	7.2296e-41
227	0x00009ea9	5.6917e-41
228	0x0000c5e2	7.0987e-41
229	0x8000ce66	-7.4042e-41
230	0x80002737	-1.4068e-41
231	0x0000aa6e	6.1139e-41
232	0x0000cd9d	7.376e-41
233	0x0000b015	6.3166e-41
234	0x80004f85	-2.8526e-41
235	0x00003d15	2.1912e-41
236	0x8000d6f7	-7.7115e-41
237	0x00001d60	1.0538e-41
238	0x00007a95	4.3974e-41
239	0x000094f7	5.3439e-41
240	0xbb914a1b	-0.004433883
241	0x3d02b927	0.031914856
242	0x3d319776	0.043357335
243	0x3c3547c6	0.011064475
244	0xbc6c8fe9	-0.014438608
245	0xbc510861	-0.012758345
246	0xbdafa536	-0.08576433
247	0x3c72714d	0.014797521
248	0xbaee6019	-0.0018186598
249	0x3dec2077	0.1152963
250	0x3ce4a16f	0.027909009
251	0x3d061a81	0.03274012
252	0xbbe37a45	-0.006942066
253	0x3d596e14	0.053083494
254	0x3d1cf315	0.03831776
255	0xbc5a70bf	-0.013332545

fc1.bias f4 [256]
0	0x3c0f754f	0.008755996
1	0xbc75d290	-0.015003815
2	0x3b39d465	0.0028355357
3	0xbbdd0c50	-0.0067458525
4	0x3c242966	0.010019636
5	0xbc6863f3	-0.014183986
6	0xbc87a7d6	-0.016559523
7	0xaf7ec232	-2.3170157e-10
8	0xbcaf83e7	-0.0214252
9	0xbad0f14e	-0.0015941055
10	0xbcf4f7c9	-0.02990331
11	0xbc67daa6	-0.014151251
12	0xbc87db2e	-0.016584005
13	0xb988ff0d	-0.0002612997
14	0xbbc96745	-0.006146344
15	0x3cc1105f	0.023567377
16	0x3ba9e738	0.005185034
17	0xbd02c173	-0.03192277
18	0x3c885e14	0.016646422
19	0x3d8a258d	0.067454435
20	0x3c733b86	0.014845734
21	0xbb959d61	-0.00456588
22	0xbc8fe4e9	-0.017565208
23	0xbcf938eb	-0.030422648
24	0x3a7b142d	0.00095778966
25	0xbcad30d7	-0.021141453
26	0xbaf466b6	-0.0018646333
27	0xbd0368e4	-0.032082453
28	0xbc9ddd5f	-0.019270597
29	0xbcc4bc84	-0.024015673
30	0x3bc7c0c4	0.0060959775
31	0xbb9e8ef3	-0.004838818
32	0x3d4a05c7	0.049321916
33	0x3d19c009	0.037536655
34	0xbbdfc030	-0.0068283305
35	0x3d024951	0.0318082
36	0x3c28185f	0.010259717
37	0x3cb501ea	0.02209564
38	0xb741ae1b	-1.15442335e-05
39	0xba96453b	-0.0011464724
40	0x3b977a8a	0.004622762
41	0xbbc26817	-0.0059328186
42	0x962bbd80	-1.3873066e-25
43	0xbd7883bf	-0.060672518
44	0xbc01b239	-0.007916027
45	0xb712de0e	-8.753979e-06
46	0xbc4819cd	-0.012213183
47	0xbb92b11a	-0.0044766786
48	0xbb30ddef	-0.0026987751
49	0xbbfd8267	-0.0077364924
50	0xb211875c	-8.470888e-09
51	0xb9413c4a	-0.00018428374
52	0x3c43a392	0.011940854
53	0xbc15b0eb	-0.009136419
54	0xbd4ca593	-0.04996259
55	0x3b638b39	0.0034720434
56	0x3c9c8a09	0.019108789
57	0x3d6b06aa	0.057379402
58	0x3c0fdb40	0.008780301
59	0xbc8189db	-0.015812805
60	0x3cb13574	0.021631934
61	0xbcfefb97	-0.031125827
62	0xbc9c0758	-0.01904647
63	0x3d8424b0	0.0645231
64	0xbc14a694	-0.009072918
65	0xbbe496f6	-0.0069760038
66	0x9b88db27	-2.2640937e-22
67	0x3a31a5c5	0.0006776716
68	0x3c57132a	0.013127128
69	0xba01007d	-0.0004921032
70	0x3b9514a1	0.0045495783
71	0xbc48b61c	-0.0122504495
72	0xbd1f5042	-0.0388949
73	0xb9ea60ad	-0.00044703987
74	0x3ce198e0	0.027538717
75	0xba8de926	-0.001082693
76	0xbcab1311	-0.020883115
77	0x3d9459c1	0.07243682
78	0x3cd383b4	0.025819637
79	0xbb1c703d	-0.002387061
80	0x3c445fdb	0.011985744
81	0xbd148930	-0.036263645
82	0x3d5e8dc9	0.054334436
83	0x3cc08740	0.023501992
84	0xbbe61919	-0.007022035
85	0x3caaacc1	0.020834329
86	0xa7d210b4	-5.830482e-15
87	0xbb78c7e6	-0.0037960946
88	0x3cff8882	0.031193022
89	0x3c903590	0.017603666
90	0x3c078078	0.008270375
91	0xa3dec983	-2.4154632e-17
92	0xbb4f0ff0	-0.0031595193
93	0xb92542c3	-0.00015760497
94	0x3d2c0246	0.041994356
95	0xbcb723cc	-0.022355936
96	0x00007109	4.055e-41
97	0xb59100b6	-1.0803549e-06
98	0x3d28a5b7	0.041173663
99	0x3d46f5dc	0.048574314
100	0xb6f53481	-7.3076812e-06
101	0x3d398c06	0.045299552
102	0xafc4b5ce	-3.5781372e-10
103	0x3c6ad710	0.014333501
104	0xb83203c1	-4.2442003e-05
105	0x3c1e6328	0.009667195
106	0xbbfd931f	-0.0077384855
107	0xbb341891	-0.0027480463
108	0xbba85457	-0.005137007
109	0x3bac7777	0.0052632648
110	0xbb2e645c	-0.0026610112
111	0x3c01eabd	0.007929501
112	0xbc02f3dd	-0.007992712
113	0xbd85c0b4	-0.06530896
114	0x9f1f2f54	-3.370871e-20
115	0xb9e25ff8	-0.0004317758
116	0x00001e0e	1.0782e-41
117	0x3c4c3180	0.012462974
118	0x3bd60dd8	0.006532412
119	0xba727c6f	-0.00092501094
120	0x3c4f2a0b	0.012644301
121	0xa18cfd8c	-9.553882e-19
122	0x9b4f0754	-1.7125007e-22
123	0xbbdeb5a3	-0.006796555
124	0xbbb4058b	-0.005493825
125	0x3c8413f3	0.016122794
126	0xbc954858	-0.018222973
127	0xbc21ff5a	-0.009887541
128	0x3c7daa94	0.0154825635
129	0xa34fa85f	-1.12571465e-17
130	0xb7ed4c5f	-2.8288165e-05
131	0x81aa086c	-6.246022e-38
132	0xbca14811	-0.019687684
133	0xbcbd2b36	-0.023091894
134	0xa8e5c98f	-2.551152e-14
135	0xbc89ba16	-0.016812366
136	0xbc91a653	-0.017779505
137	0xbd027f43	-0.031859647
138	0xbcbb0785	-0.022830734
139	0xbc331cbe	-0.010932146
140	0xb5cd630e	-1.5302519e-06
141	0xbc7600d1	-0.015014843
142	0x3c566023	0.013084444
143	0x3c45c666	0.012071228
144	0x3c2e1be3	0.010626766
145	0xb4c30216	-3.6323098e-07
146	0xbd2ba97a	-0.041909672
147	0xbcc71158	-0.024300262
148	0xaaf7ef72	-4.4042162e-13
149	0x3a05ff0d	0.0005111553
150	0xbc2dc51a	-0.010606075
151	0xbbed7f1b	-0.007247818
152	0x3d1598fb	0.036522847
153	0x3cb081e5	0.021546314
154	0xbc6b2868	-0.014352895
155	0xbc948029	-0.018127518
156	0xbc703f18	-0.01466348
157	0x3d8cb888	0.06871134
158	0x307e3bfc	9.2489905e-10
159	0xbcf7ea49	-0.030263083
160	0xba4b3427	-0.0007751607
161	0x3d134f69	0.035964403
162	0xbc816284	-0.015794046
163	0x3c7dc672	0.015489208
164	0x3d29afa4	0.04142727
165	0xb645a616	-2.9451962e-06
166	0xbabdd8d7	-0.0014484179
167	0x9a2467bb	-3.3998198e-23
168	0xb09b462f	-1.1297682e-09
169	0xb9e14ef4	-0.0004297417
170	0x3bf67caa	0.0075221853
171	0x3c675f60	0.01412186
172	0x3d23e89e	0.040016763
173	0x3cd32af2	0.025777314
174	0x3d552f01	0.05204678
175	0x3d61dd6c	0.055142805
176	0x3be83b78	0.0070871674
177	0xbc84f619	-0.01623063
178	0x3d1361fe	0.035982125
179	0xba85a854	-0.001019726
180	0x3d9f13dc	0.0776746
181	0xb66feb97	-3.5750907e-06
182	0xbc4841a7	-0.012222684
183	0x3a5bf9e4	0.00083914236
184	0x3d3c3198	0.045945734
185	0x3d1b3d6d	0.037900377
186	0xbcb44cfc	-0.022009365
187	0x3a1b95e9	0.0005935119
188	0xbb843aae	-0.0040353155
189	0xbc97446b	-0.018465241
190	0x3bbe629e	0.005810096
191	0xbd005628	-0.031332165
192	0x3d537a73	0.05163045
193	0x39e53a4c	0.00043721718
194	0xbb42f4d4	-0.002974798
195	0xad544bd3	-1.2067641e-11
196	0xbc720ee3	-0.014774057
197	0x17f3dc0c	1.5759055e-24
198	0x000067b7	3.7206e-41
199	0xbbd6f34b	-0.0065597645
200	0x3c109c8a	0.008826384
201	0xbaa07d62	-0.0012244398
202	0xbc0a9fdf	-0.008460968
203	0xbc510cdb	-0.012759413
204	0xbbeaa6eb	-0.0071610115
205	0xb94a997d	-0.000193214
206	0xbce6e005	-0.028182993
207	0xbbedd5b4	-0.0072581414
208	0xbb987149	-0.0046521765
209	0xbb57c931	-0.0032926316
210	0xbca91211	-0.020638498
211	0x3cd62fbb	0.026145807
212	0xbc175135	-0.00923567
213	0xbc2dd75f	-0.0106104305
214	0xa88154dd	-1.435868e-14
215	0xbc490d04	-0.01227117
216	0xbd5540e2	-0.05206383
217	0x3c8c4d69	0.017126756
218	0x3b04610c	0.0020199446
219	0x2fedebdb	4.3277634e-10
220	0x3cbf7dc7	0.023375405
221	0xb11b88b6	-2.263318e-09
222	0xaaa9ec64	-3.018446e-13
223	0xbc0ee36c	-0.008721214
224	0xbc673b37	-0.014113239
225	0xbc9e1eca	-0.01930179
226	0xbaaf5db0	-0.0013379361
227	0xb2263e11	-9.676584e-09
228	0x063255e5	3.3541184e-35
229	0xbc914d5d	-0.017737085
230	0xbd1d3174	-0.03837724
231	0x3c14d179	0.009083145
232	0xb5612e86	-8.388673e-07
233	0xbc58d989	-0.013235458
234	0xbc9d75c0	-0.019221187
235	0x3b805331	0.003916167
236	0xbb5534dd	-0.003253273
237	0x3ca11143	0.019661551
238	0xbcf2fbf3	-0.029661154
239	0x3b42f5f4	0.002974865
240	0xa8a1758f	-1.7925574e-14
241	0x3c276e06	0.010219103
242	0xbd1c556a	-0.038167395
243	0xbae0daa2	-0.0017155001
244	0x3d068499	0.0328413
245	0xbd1864d5	-0.037205536
246	0xb88d3a39	-6.734249e-05
247	0xba972a22	-0.0011532942
248	0xbd013b69	-0.0315508
249	0x3d470829	0.048591767
250	0xb9f964a8	-0.00047567976
251	0x3d3e7cfb	0.04650591
252	0x3daac750	0.08338797
253	0x38cdbd6d	9.810445e-05
254	0x3ce01b2b	0.027356705
255	0xbcaad960	-0.020855606

fc2.weight f4 [10, 256]
0	0xbe3c1310	-0.18366647
1	0x3adc16a1	0.0016791412
2	0x3da5ceef	0.0809611
3	0xbddd0b43	-0.107931636
4	0x3cd06c3a	0.025442231
5	0x3cde6b64	0.027150817
6	0xbe19e3b2	-0.15028265
7	0x3b20d294	0.0024539577
8	0x3d6d51f6	0.057939492
9	0xbd3bb595	-0.045827467
10	0xbb47ea4e	-0.0030504647
11	0x3d424b1b	0.047434907
12	0xbd6db8f1	-0.058037702
13	0xbcbd2eec	-0.023093663
14	0xbd29a351	-0.041415516
15	0x3d4ebc00	0.05047226
16	0x3c5e419a	0.013565445
17	0x3ddb100a	0.106964186
18	0xbe0c818d	-0.13721295
19	0xbd82a591	-0.063792355
20	0xbe43d696	-0.19124827
21	0xbcaa6fac	-0.020805202
22	0x3d8f4e36	0.069973394
23	0x3ce1c613	0.02756027
24	0x3daff69b	0.08591958
25	0x3cea6f33	0.028617477
26	0xbd12f9db	-0.035882812
27	0x3cbd9d7f	0.023146389
28	0x3de5bb0e	0.112173185
29	0x3d82774b	0.063704096
30	0xbd87a765	-0.06623725
31	0x3d535738	0.05159685
32	0xbdbcecf3	-0.09224882
33	0xbdd4340c	-0.1036149
34	0xbb19ea3f	-0.0023485569
35	0xbdfd8c07	-0.12380224
36	0x3d7c2561	0.061559085
37	0xbd6fde5e	-0.058561675
38	0xbcdea9d5	-0.027180592
39	0x3cc65c7a	0.024214018
40	0xbd8b15a0	-0.06791234
41	0xba904c99	-0.0011009156
42	0x3533b9bd	6.695298e-07
43	0xbda62c7f	-0.08113956
44	0xbe0b4b4d	-0.13602944
45	0x385fec72	5.338755e-05
46	0xbd96cd25	-0.07363347
47	0xbca66a92	-0.020314489
48	0x37e703bd	2.7539087e-05
49	0xbdd831e7	-0.10556393
50	0x3b6e33bf	0.003634676
51	0x2d0ea3cf	8.108138e-12
52	0xbd4540a1	-0.048157338
53	0xbb3d0d21	-0.0028846937
54	0x3e0e6bb6	0.13908276
55	0xbe33d965	-0.17563398
56	0xbcc33037	-0.023826702
57	0xbdfcde00	-0.12347031
58	0x3d8ca66b	0.06867679
59	0xbd9fad05	-0.07796673
60	0x3d32d322	0.043658383
61	0xbc47cb6f	-0.012194498
62	0x3c61b313	0.013775605
63	0xbe3c5be7	-0.18394433
64	0xbc944e1e	-0.018103655
65	0xbc0eef81	-0.008724094
66	0x37c27f5f	2.3185914e-05
67	0xbd89fce6	-0.0673769
68	0xbe06e1ee	-0.13172123
69	0xbc062206	-0.008186823
70	0xbe0f3740	-0.1398592
71	0xbde9c927	-0.1141532
72	0xbd11d914	-0.035607412
73	0xbd46bc0f	-0.04851919
74	0xbde9f4d5	-0.11423651
75	0xbe0df196	-0.13861689
76	0xbcacbfd4	-0.021087565
77	0xbe3c3550	-0.18379712
78	0xbd7a24bc	-0.06107019
79	0x3ba61b55	0.005069176
80	0xbda3673a	-0.07978673
81	0x3e4c5d93	0.1995757
82	0xbe95f120	-0.29285526
83	0xbe1d087e	-0.15335271
84	0x3d41e22f	0.047334846
85	0xbe21fd77	-0.15819345
86	0xb9dce8d0	-0.0004213513
87	0x3840dfde	4.598486e-05
88	0x3e0e5be4	0.13902241
89	0xbdf197ab	-0.117965065
90	0x3cd87714	0.026423968
91	0x0cf3976b	3.753121e-31
92	0x3d4cbd80	0.04998541
93	0x3d1d017e	0.0383315
94	0x3c9c7699	0.01909952
95	0x3e0661d1	0.13123251
96	0xb7ea5949	-2.793655e-05
97	0xb785bad6	-1.5941838e-05
98	0xbd8f8d8e	-0.07009421
99	0xbe495fea	-0.19665495
100	0xb9a30ae7	-0.00031097906
101	0xbd32df4c	-0.043669984
102	0x3c0ec364	0.008713577
103	0xbd540f0f	-0.051772173
104	0xb9b43e6e	-0.0003437879
105	0x3d72f079	0.059311364
106	0x3e030379	0.12794293
107	0x3bab81ce	0.00523398
108	0xbd38c0e8	-0.045105845
109	0xbdbffe50	-0.09374678
110	0x3cd9eaf6	0.026601296
111	0xbd9ea70f	-0.07746708
112	0xbc133845	-0.008985584
113	0x3dd56ebf	0.10421514
114	0x38bef359	9.105233e-05
115	0x3c151ea2	0.009101542
116	0xbb28efee	-0.0025777775
117	0xbd76af94	-0.060226038
118	0xbe4c7e87	-0.19970141
119	0xbc7a1c4c	-0.015265536
120	0xbdc03eb1	-0.093869574
121	0x9df01882	-6.355281e-21
122	0x99b4343e	-1.8632664e-23
123	0x3c09fa50	0.008421496
124	0xbb85572c	-0.0040692296
125	0x3e127816	0.14303622
126	0xbc32e569	-0.010918953
127	0xbccde8cc	-0.02513542
128	0xbdb23cdf	-0.087030165
129	0xb95bd387	-0.00020964268
130	0xaf3479c2	-1.6414162e-10
131	0x3315850e	3.481278e-08
132	0x3cce5712	0.025188003
133	0x3def036d	0.11670575
134	0x38cc819d	9.7516204e-05
135	0x3dcfa5be	0.10139035
136	0xbd4d8e20	-0.05018437
137	0x3dae067b	0.0849733
138	0x3de6d63e	0.11271332
139	0xbc92f39d	-0.01793843
140	0xb2ff9d23	-2.9757365e-08
141	0x3e1ba8c3	0.15201096
142	0xbde602ab	-0.112309776
143	0xbd0c0520	-0.034184575
144	0x3d3356b7	0.04378387
145	0xb5958b40	-1.1141892e-06
146	0x3dd2246d	0.10260854
147	0x3d9f49fe	0.07777785
148	0x3b07d423	0.0020725809
149	0x3d621a74	0.05520101
150	0xbb7aa007	-0.0038242356
151	0x3c0f2245	0.008736198
152	0xbe12a329	-0.14320053
153	0xbe273543	-0.16328911
154	0xbdc17eb4	-0.09447995
155	0xbbf7bd7e	-0.007560431
156	0xbd823e54	-0.063595444
157	0xbe8be637	-0.27324077
158	0xba8d2818	-0.0010769395
159	0x39905fdd	0.00027537244
160	0x3b7599ad	0.003747563
161	0xbe4a8ac1	-0.19779493
162	0x3c1b4750	0.009477451
163	0x3a84f249	0.0010143007
164	0xbd89cce3	-0.06728532
165	0x3bcf7f46	0.006332311
166	0x3b53078c	0.0032200543
167	0x23138723	7.997502e-18
168	0xbacfeac3	-0.0015862811
169	0x3b14f34d	0.0022728026
170	0xbdd5b90f	-0.10435688
171	0xbdac4496	-0.08411519
172	0xbd3a1f53	-0.04544003
173	0xbdefe94e	-0.11714421
174	0xbe6f413c	-0.23364729
175	0xbe22dd5a	-0.15904751
176	0x3d031ecb	0.03201179
177	0x3de85328	0.11343986
178	0xbdac4434	-0.08411446
179	0x3c9dca6a	0.019261558
180	0xbe6ec941	-0.2331896
181	0x3abfe690	0.0014640857
182	0xbd50706c	-0.050888464
183	0x3c4a9d4d	0.012366605
184	0xbc819238	-0.015816793
185	0xbe0ab956	-0.13547263
186	0x3d6fe606	0.058568977
187	0x3d3ab1d3	0.045579743
188	0xbc2b3ca0	-0.010451466
189	0xbd57fa9b	-0.05272923
190	0xbdce74cd	-0.10080872
191	0x3dfb5f68	0.12274057
192	0xbc832679	-0.016009556
193	0xbaef97fd	-0.0018279549
194	0xbbe52139	-0.006992486
195	0xb9781916	-0.00023660468
196	0xbcdf496f	-0.027256696
197	0x39c01645	0.00036637686
198	0xa976415f	-5.4679673e-14
199	0x3cf160eb	0.02946516
200	0xbcaae095	-0.020859042
201	0xbc814ce5	-0.015783736
202	0xbd4c0d17	-0.04981717
203	0x3c4e119f	0.012577443
204	0x3c2a9319	0.010411047
205	0xbd87fef6	-0.06640427
206	0x3e4f4b74	0.20243627
207	0x3d74c506	0.05975821
208	0xbd023ad6	-0.03179439
209	0x3bf489f4	0.0074627344
210	0x3e1a1b2a	0.15049425
211	0xbe15d06e	-0.14630291
212	0xbdf77b7d	-0.120841004
213	0x3d689596	0.05678328
214	0xbb696ae1	-0.0035616683
215	0xbdc246f7	-0.09486192
216	0x3e2ab3f0	0.16670203
217	0x3cecaaf3	0.028890109
218	0xbd5c0046	-0.0537112
219	0x3b991b25	0.0046724253
220	0xbd967c9f	-0.07347988
221	0x390c9d21	0.00013409976
222	0x35a5c935	1.2352017e-06
223	0x3de1b62f	0.11021077
224	0x3d967f69	0.0734852
225	0x3ce7cb3f	0.028295157
226	0xb35367f0	-4.9221796e-08
227	0xb4d9dad4	-4.0578618e-07
228	0x8530c3b1	-8.311423e-36
229	0xbd28a79a	-0.041175462
230	0x3da82003	0.08209231
231	0xbcf17378	-0.029474005
232	0xba275c70	-0.00063843187
233	0x3d4b97a2	0.049705155
234	0xbc661a82	-0.014044406
235	0xbd8f9a99	-0.07011909
236	0x3cce74f5	0.025202254
237	0x3d3c72e3	0.046008002
238	0x3d8e5210	0.06949246
239	0xbe30c069	-0.17260899
240	0xb18f0f27	-4.1635704e-09
241	0x3c85b63c	0.016322248
242	0xbce689da	-0.028141905
243	0xbdf48755	-0.11939875
244	0xbe4b433c	-0.19849867
245	0x3e04ee04	0.12981421
246	0xbcbee186	-0.023300897
247	0x3d36a0f7	0.0445871
248	0x3b067f25	0.0020522561
249	0xbd55d3f4	-0.052204087
250	0xbc89a9fd	-0.01680469
251	0xbd62f36c	-0.055407926
252	0xbe922d2f	-0.28550097
253	0xbe11c5c8	-0.14235604
254	0x3dd0e90a	0.10200699
255	0x3a521bfe	0.00080150354

fc2.bias f4 [10]
0	0xbda5c48a	-0.080941275
1	0xbc490dc0	-0.012271345
2	0xbc9655b2	-0.01835141
3	0x3c208981	0.0097984085
4	0x3d873985	0.06602768
5	0xbbff7076	-0.007795389
6	0xbcc058fb	-0.02347993
7	0x3cd59f91	0.026077064
8	0x3c115a86	0.00887168
9	0xbd2614da	-0.04054723
